{"format": "graph-model", "generatedBy": "2.18.0", "convertedBy": "TensorFlow.js Converter v4.22.0", "signature": {"outputs": {"Identity:0": {"name": "Identity:0"}}}, "modelTopology": {"node": [{"name": "ConstantFolding/model_91/tf.math.divide_2/truediv_recip", "op": "Const", "attr": {"value": {"tensor": {"dtype": "DT_FLOAT", "tensorShape": {}}}, "dtype": {"type": "DT_FLOAT"}}}, {"name": "model_91/tf.strided_slice_74/ones_like/tensor", "op": "Const", "attr": {"value": {"tensor": {"dtype": "DT_INT64", "tensorShape": {"dim": [{"size": "3"}]}}}, "dtype": {"type": "DT_INT64"}}}, {"name": "model_91/tf.strided_slice_74/StridedSlice/end", "op": "Const", "attr": {"value": {"tensor": {"dtype": "DT_INT64", "tensorShape": {"dim": [{"size": "3"}]}}}, "dtype": {"type": "DT_INT64"}}}, {"name": "model_91/tf.strided_slice_74/ones_like", "op": "Const", "attr": {"value": {"tensor": {"dtype": "DT_INT64", "tensorShape": {"dim": [{"size": "3"}]}}}, "dtype": {"type": "DT_INT64"}}}, {"name": "model_91/tf.math.add_356/Add/y", "op": "Const", "attr": {"value": {"tensor": {"dtype": "DT_FLOAT", "tensorShape": {"dim": [{"size": "1"}, {"size": "2"}, {"size": "2100"}]}}}, "dtype": {"type": "DT_FLOAT"}}}, {"name": "model_91/151533", "op": "Const", "attr": {"value": {"tensor": {"dtype": "DT_FLOAT", "tensorShape": {"dim": [{"size": "1"}, {"size": "2"}, {"size": "2100"}]}}}, "dtype": {"type": "DT_FLOAT"}}}, {"name": "model_91/tf.strided_slice_71/StridedSlice/begin", "op": "Const", "attr": {"value": {"tensor": {"dtype": "DT_INT64", "tensorShape": {"dim": [{"size": "3"}]}}}, "dtype": {"type": "DT_INT64"}}}, {"name": "model_91/tf.strided_slice_71/StridedSlice/end", "op": "Const", "attr": {"value": {"tensor": {"dtype": "DT_INT64", "tensorShape": {"dim": [{"size": "3"}]}}}, "dtype": {"type": "DT_INT64"}}}, {"name": "model_91/tf.strided_slice_71/StridedSlice/strides", "op": "Const", "attr": {"value": {"tensor": {"dtype": "DT_INT64", "tensorShape": {"dim": [{"size": "3"}]}}}, "dtype": {"type": "DT_INT64"}}}, {"name": "model_91/tf.reshape_68/Reshape/shape", "op": "Const", "attr": {"value": {"tensor": {"dtype": "DT_INT32", "tensorShape": {"dim": [{"size": "4"}]}}}, "dtype": {"type": "DT_INT32"}}}, {"name": "model_91/tf.compat.v1.transpose_411/transpose/perm", "op": "Const", "attr": {"value": {"tensor": {"dtype": "DT_INT32", "tensorShape": {"dim": [{"size": "4"}]}}}, "dtype": {"type": "DT_INT32"}}}, {"name": "model_91/tf.compat.v1.transpose_412/transpose/perm", "op": "Const", "attr": {"value": {"tensor": {"dtype": "DT_INT32", "tensorShape": {"dim": [{"size": "4"}]}}}, "dtype": {"type": "DT_INT32"}}}, {"name": "model_91/tf.nn.convolution_631/convolution/filter", "op": "Const", "attr": {"value": {"tensor": {"dtype": "DT_FLOAT", "tensorShape": {"dim": [{"size": "1"}, {"size": "1"}, {"size": "16"}, {"size": "1"}]}}}, "dtype": {"type": "DT_FLOAT"}}}, {"name": "model_91/tf.compat.v1.transpose_417/transpose/perm", "op": "Const", "attr": {"value": {"tensor": {"dtype": "DT_INT32", "tensorShape": {"dim": [{"size": "4"}]}}}, "dtype": {"type": "DT_INT32"}}}, {"name": "model_91/tf.reshape_71/Reshape/shape", "op": "Const", "attr": {"value": {"tensor": {"dtype": "DT_INT32", "tensorShape": {"dim": [{"size": "3"}]}}}, "dtype": {"type": "DT_INT32"}}}, {"name": "model_91/tf.strided_slice_73/ones_like/tensor", "op": "Const", "attr": {"value": {"tensor": {"dtype": "DT_INT64", "tensorShape": {"dim": [{"size": "3"}]}}}, "dtype": {"type": "DT_INT64"}}}, {"name": "model_91/tf.strided_slice_73/StridedSlice/end", "op": "Const", "attr": {"value": {"tensor": {"dtype": "DT_INT64", "tensorShape": {"dim": [{"size": "3"}]}}}, "dtype": {"type": "DT_INT64"}}}, {"name": "model_91/tf.strided_slice_73/ones_like", "op": "Const", "attr": {"value": {"tensor": {"dtype": "DT_INT64", "tensorShape": {"dim": [{"size": "3"}]}}}, "dtype": {"type": "DT_INT64"}}}, {"name": "model_91/tf.concat_81/concat/axis", "op": "Const", "attr": {"value": {"tensor": {"dtype": "DT_INT32", "tensorShape": {}}}, "dtype": {"type": "DT_INT32"}}}, {"name": "model_91/tf.math.multiply_1985/Mul", "op": "Const", "attr": {"value": {"tensor": {"dtype": "DT_FLOAT", "tensorShape": {"dim": [{"size": "1"}, {"size": "1"}, {"size": "2100"}]}}}, "dtype": {"type": "DT_FLOAT"}}}, {"name": "model_91/tf.nn.convolution_599/convolution/filter", "op": "Const", "attr": {"value": {"tensor": {"dtype": "DT_FLOAT", "tensorShape": {"dim": [{"size": "3"}, {"size": "3"}, {"size": "64"}, {"size": "64"}]}}}, "dtype": {"type": "DT_FLOAT"}}}, {"name": "model_91/tf.math.add_312/Add/y", "op": "Const", "attr": {"value": {"tensor": {"dtype": "DT_FLOAT", "tensorShape": {"dim": [{"size": "64"}]}}}, "dtype": {"type": "DT_FLOAT"}}}, {"name": "model_91/tf.nn.convolution_600/convolution/filter", "op": "Const", "attr": {"value": {"tensor": {"dtype": "DT_FLOAT", "tensorShape": {"dim": [{"size": "3"}, {"size": "3"}, {"size": "64"}, {"size": "64"}]}}}, "dtype": {"type": "DT_FLOAT"}}}, {"name": "model_91/tf.math.add_314/Add/y", "op": "Const", "attr": {"value": {"tensor": {"dtype": "DT_FLOAT", "tensorShape": {"dim": [{"size": "64"}]}}}, "dtype": {"type": "DT_FLOAT"}}}, {"name": "model_91/tf.nn.convolution_603/convolution/filter", "op": "Const", "attr": {"value": {"tensor": {"dtype": "DT_FLOAT", "tensorShape": {"dim": [{"size": "1"}, {"size": "1"}, {"size": "64"}, {"size": "64"}]}}}, "dtype": {"type": "DT_FLOAT"}}}, {"name": "model_91/tf.math.add_317/Add/y", "op": "Const", "attr": {"value": {"tensor": {"dtype": "DT_FLOAT", "tensorShape": {"dim": [{"size": "64"}]}}}, "dtype": {"type": "DT_FLOAT"}}}, {"name": "model_91/tf.compat.v1.nn.depthwise_conv2d_14/depthwise/filter_in", "op": "Const", "attr": {"value": {"tensor": {"dtype": "DT_FLOAT", "tensorShape": {"dim": [{"size": "3"}, {"size": "3"}, {"size": "64"}, {"size": "1"}]}}}, "dtype": {"type": "DT_FLOAT"}}}, {"name": "model_91/tf.math.add_313/Add/y", "op": "Const", "attr": {"value": {"tensor": {"dtype": "DT_FLOAT", "tensorShape": {"dim": [{"size": "64"}]}}}, "dtype": {"type": "DT_FLOAT"}}}, {"name": "model_91/tf.nn.convolution_601/convolution/filter", "op": "Const", "attr": {"value": {"tensor": {"dtype": "DT_FLOAT", "tensorShape": {"dim": [{"size": "1"}, {"size": "1"}, {"size": "64"}, {"size": "64"}]}}}, "dtype": {"type": "DT_FLOAT"}}}, {"name": "model_91/tf.math.add_315/Add/y", "op": "Const", "attr": {"value": {"tensor": {"dtype": "DT_FLOAT", "tensorShape": {"dim": [{"size": "64"}]}}}, "dtype": {"type": "DT_FLOAT"}}}, {"name": "model_91/tf.compat.v1.nn.depthwise_conv2d_15/depthwise/filter_in", "op": "Const", "attr": {"value": {"tensor": {"dtype": "DT_FLOAT", "tensorShape": {"dim": [{"size": "3"}, {"size": "3"}, {"size": "64"}, {"size": "1"}]}}}, "dtype": {"type": "DT_FLOAT"}}}, {"name": "model_91/tf.math.add_318/Add/y", "op": "Const", "attr": {"value": {"tensor": {"dtype": "DT_FLOAT", "tensorShape": {"dim": [{"size": "64"}]}}}, "dtype": {"type": "DT_FLOAT"}}}, {"name": "model_91/tf.nn.convolution_605/convolution/filter", "op": "Const", "attr": {"value": {"tensor": {"dtype": "DT_FLOAT", "tensorShape": {"dim": [{"size": "1"}, {"size": "1"}, {"size": "64"}, {"size": "64"}]}}}, "dtype": {"type": "DT_FLOAT"}}}, {"name": "model_91/tf.math.add_320/Add/y", "op": "Const", "attr": {"value": {"tensor": {"dtype": "DT_FLOAT", "tensorShape": {"dim": [{"size": "64"}]}}}, "dtype": {"type": "DT_FLOAT"}}}, {"name": "model_91/tf.nn.convolution_607/convolution/filter", "op": "Const", "attr": {"value": {"tensor": {"dtype": "DT_FLOAT", "tensorShape": {"dim": [{"size": "1"}, {"size": "1"}, {"size": "64"}, {"size": "8"}]}}}, "dtype": {"type": "DT_FLOAT"}}}, {"name": "model_91/tf.math.add_322/Add/y", "op": "Const", "attr": {"value": {"tensor": {"dtype": "DT_FLOAT", "tensorShape": {"dim": [{"size": "8"}]}}}, "dtype": {"type": "DT_FLOAT"}}}, {"name": "model_91/tf.concat_70/concat/axis", "op": "Const", "attr": {"value": {"tensor": {"dtype": "DT_INT32", "tensorShape": {}}}, "dtype": {"type": "DT_INT32"}}}, {"name": "model_91/tf.compat.v1.transpose_368/transpose/perm", "op": "Const", "attr": {"value": {"tensor": {"dtype": "DT_INT32", "tensorShape": {"dim": [{"size": "4"}]}}}, "dtype": {"type": "DT_INT32"}}}, {"name": "model_91/tf.reshape_59/Reshape/shape", "op": "Const", "attr": {"value": {"tensor": {"dtype": "DT_INT32", "tensorShape": {"dim": [{"size": "3"}]}}}, "dtype": {"type": "DT_INT32"}}}, {"name": "model_91/tf.nn.convolution_610/convolution/filter", "op": "Const", "attr": {"value": {"tensor": {"dtype": "DT_FLOAT", "tensorShape": {"dim": [{"size": "3"}, {"size": "3"}, {"size": "128"}, {"size": "64"}]}}}, "dtype": {"type": "DT_FLOAT"}}}, {"name": "model_91/tf.math.add_327/Add/y", "op": "Const", "attr": {"value": {"tensor": {"dtype": "DT_FLOAT", "tensorShape": {"dim": [{"size": "64"}]}}}, "dtype": {"type": "DT_FLOAT"}}}, {"name": "model_91/tf.nn.convolution_611/convolution/filter", "op": "Const", "attr": {"value": {"tensor": {"dtype": "DT_FLOAT", "tensorShape": {"dim": [{"size": "3"}, {"size": "3"}, {"size": "64"}, {"size": "64"}]}}}, "dtype": {"type": "DT_FLOAT"}}}, {"name": "model_91/tf.math.add_329/Add/y", "op": "Const", "attr": {"value": {"tensor": {"dtype": "DT_FLOAT", "tensorShape": {"dim": [{"size": "64"}]}}}, "dtype": {"type": "DT_FLOAT"}}}, {"name": "model_91/tf.nn.convolution_614/convolution/filter", "op": "Const", "attr": {"value": {"tensor": {"dtype": "DT_FLOAT", "tensorShape": {"dim": [{"size": "1"}, {"size": "1"}, {"size": "64"}, {"size": "64"}]}}}, "dtype": {"type": "DT_FLOAT"}}}, {"name": "model_91/tf.math.add_332/Add/y", "op": "Const", "attr": {"value": {"tensor": {"dtype": "DT_FLOAT", "tensorShape": {"dim": [{"size": "64"}]}}}, "dtype": {"type": "DT_FLOAT"}}}, {"name": "model_91/tf.compat.v1.nn.depthwise_conv2d_16/depthwise/filter_in", "op": "Const", "attr": {"value": {"tensor": {"dtype": "DT_FLOAT", "tensorShape": {"dim": [{"size": "3"}, {"size": "3"}, {"size": "128"}, {"size": "1"}]}}}, "dtype": {"type": "DT_FLOAT"}}}, {"name": "model_91/tf.math.add_328/Add/y", "op": "Const", "attr": {"value": {"tensor": {"dtype": "DT_FLOAT", "tensorShape": {"dim": [{"size": "128"}]}}}, "dtype": {"type": "DT_FLOAT"}}}, {"name": "model_91/tf.nn.convolution_612/convolution/filter", "op": "Const", "attr": {"value": {"tensor": {"dtype": "DT_FLOAT", "tensorShape": {"dim": [{"size": "1"}, {"size": "1"}, {"size": "128"}, {"size": "64"}]}}}, "dtype": {"type": "DT_FLOAT"}}}, {"name": "model_91/tf.math.add_330/Add/y", "op": "Const", "attr": {"value": {"tensor": {"dtype": "DT_FLOAT", "tensorShape": {"dim": [{"size": "64"}]}}}, "dtype": {"type": "DT_FLOAT"}}}, {"name": "model_91/tf.compat.v1.nn.depthwise_conv2d_17/depthwise/filter_in", "op": "Const", "attr": {"value": {"tensor": {"dtype": "DT_FLOAT", "tensorShape": {"dim": [{"size": "3"}, {"size": "3"}, {"size": "64"}, {"size": "1"}]}}}, "dtype": {"type": "DT_FLOAT"}}}, {"name": "model_91/tf.math.add_333/Add/y", "op": "Const", "attr": {"value": {"tensor": {"dtype": "DT_FLOAT", "tensorShape": {"dim": [{"size": "64"}]}}}, "dtype": {"type": "DT_FLOAT"}}}, {"name": "model_91/tf.nn.convolution_617/convolution/filter", "op": "Const", "attr": {"value": {"tensor": {"dtype": "DT_FLOAT", "tensorShape": {"dim": [{"size": "1"}, {"size": "1"}, {"size": "64"}, {"size": "64"}]}}}, "dtype": {"type": "DT_FLOAT"}}}, {"name": "model_91/tf.math.add_336/Add/y", "op": "Const", "attr": {"value": {"tensor": {"dtype": "DT_FLOAT", "tensorShape": {"dim": [{"size": "64"}]}}}, "dtype": {"type": "DT_FLOAT"}}}, {"name": "model_91/tf.nn.convolution_619/convolution/filter", "op": "Const", "attr": {"value": {"tensor": {"dtype": "DT_FLOAT", "tensorShape": {"dim": [{"size": "1"}, {"size": "1"}, {"size": "64"}, {"size": "8"}]}}}, "dtype": {"type": "DT_FLOAT"}}}, {"name": "model_91/tf.math.add_338/Add/y", "op": "Const", "attr": {"value": {"tensor": {"dtype": "DT_FLOAT", "tensorShape": {"dim": [{"size": "8"}]}}}, "dtype": {"type": "DT_FLOAT"}}}, {"name": "model_91/tf.concat_73/concat/axis", "op": "Const", "attr": {"value": {"tensor": {"dtype": "DT_INT32", "tensorShape": {}}}, "dtype": {"type": "DT_INT32"}}}, {"name": "model_91/tf.compat.v1.transpose_386/transpose/perm", "op": "Const", "attr": {"value": {"tensor": {"dtype": "DT_INT32", "tensorShape": {"dim": [{"size": "4"}]}}}, "dtype": {"type": "DT_INT32"}}}, {"name": "model_91/tf.reshape_62/Reshape/shape", "op": "Const", "attr": {"value": {"tensor": {"dtype": "DT_INT32", "tensorShape": {"dim": [{"size": "3"}]}}}, "dtype": {"type": "DT_INT32"}}}, {"name": "model_91/tf.nn.convolution_625/convolution/filter", "op": "Const", "attr": {"value": {"tensor": {"dtype": "DT_FLOAT", "tensorShape": {"dim": [{"size": "3"}, {"size": "3"}, {"size": "256"}, {"size": "64"}]}}}, "dtype": {"type": "DT_FLOAT"}}}, {"name": "model_91/tf.math.add_348/Add/y", "op": "Const", "attr": {"value": {"tensor": {"dtype": "DT_FLOAT", "tensorShape": {"dim": [{"size": "64"}]}}}, "dtype": {"type": "DT_FLOAT"}}}, {"name": "model_91/tf.nn.convolution_626/convolution/filter", "op": "Const", "attr": {"value": {"tensor": {"dtype": "DT_FLOAT", "tensorShape": {"dim": [{"size": "3"}, {"size": "3"}, {"size": "64"}, {"size": "64"}]}}}, "dtype": {"type": "DT_FLOAT"}}}, {"name": "model_91/tf.math.add_350/Add/y", "op": "Const", "attr": {"value": {"tensor": {"dtype": "DT_FLOAT", "tensorShape": {"dim": [{"size": "64"}]}}}, "dtype": {"type": "DT_FLOAT"}}}, {"name": "model_91/tf.nn.convolution_628/convolution/filter", "op": "Const", "attr": {"value": {"tensor": {"dtype": "DT_FLOAT", "tensorShape": {"dim": [{"size": "1"}, {"size": "1"}, {"size": "64"}, {"size": "64"}]}}}, "dtype": {"type": "DT_FLOAT"}}}, {"name": "model_91/tf.math.add_352/Add/y", "op": "Const", "attr": {"value": {"tensor": {"dtype": "DT_FLOAT", "tensorShape": {"dim": [{"size": "64"}]}}}, "dtype": {"type": "DT_FLOAT"}}}, {"name": "model_91/tf.strided_slice_69/ones_like/tensor", "op": "Const", "attr": {"value": {"tensor": {"dtype": "DT_INT64", "tensorShape": {"dim": [{"size": "4"}]}}}, "dtype": {"type": "DT_INT64"}}}, {"name": "model_91/tf.strided_slice_69/StridedSlice/end", "op": "Const", "attr": {"value": {"tensor": {"dtype": "DT_INT64", "tensorShape": {"dim": [{"size": "4"}]}}}, "dtype": {"type": "DT_INT64"}}}, {"name": "model_91/tf.strided_slice_69/ones_like", "op": "Const", "attr": {"value": {"tensor": {"dtype": "DT_INT64", "tensorShape": {"dim": [{"size": "4"}]}}}, "dtype": {"type": "DT_INT64"}}}, {"name": "model_91/tf.nn.convolution_615/convolution/filter", "op": "Const", "attr": {"value": {"tensor": {"dtype": "DT_FLOAT", "tensorShape": {"dim": [{"size": "1"}, {"size": "1"}, {"size": "128"}, {"size": "64"}]}}}, "dtype": {"type": "DT_FLOAT"}}}, {"name": "model_91/tf.math.add_334/Add/y", "op": "Const", "attr": {"value": {"tensor": {"dtype": "DT_FLOAT", "tensorShape": {"dim": [{"size": "64"}]}}}, "dtype": {"type": "DT_FLOAT"}}}, {"name": "model_91/tf.nn.convolution_618/convolution/filter", "op": "Const", "attr": {"value": {"tensor": {"dtype": "DT_FLOAT", "tensorShape": {"dim": [{"size": "3"}, {"size": "3"}, {"size": "64"}, {"size": "64"}]}}}, "dtype": {"type": "DT_FLOAT"}}}, {"name": "model_91/tf.math.add_337/Add/y", "op": "Const", "attr": {"value": {"tensor": {"dtype": "DT_FLOAT", "tensorShape": {"dim": [{"size": "64"}]}}}, "dtype": {"type": "DT_FLOAT"}}}, {"name": "model_91/tf.nn.convolution_620/convolution/filter", "op": "Const", "attr": {"value": {"tensor": {"dtype": "DT_FLOAT", "tensorShape": {"dim": [{"size": "3"}, {"size": "3"}, {"size": "64"}, {"size": "64"}]}}}, "dtype": {"type": "DT_FLOAT"}}}, {"name": "model_91/tf.math.add_339/Add/y", "op": "Const", "attr": {"value": {"tensor": {"dtype": "DT_FLOAT", "tensorShape": {"dim": [{"size": "64"}]}}}, "dtype": {"type": "DT_FLOAT"}}}, {"name": "model_91/tf.nn.convolution_621/convolution/filter", "op": "Const", "attr": {"value": {"tensor": {"dtype": "DT_FLOAT", "tensorShape": {"dim": [{"size": "3"}, {"size": "3"}, {"size": "64"}, {"size": "64"}]}}}, "dtype": {"type": "DT_FLOAT"}}}, {"name": "model_91/tf.math.add_342/Add/y", "op": "Const", "attr": {"value": {"tensor": {"dtype": "DT_FLOAT", "tensorShape": {"dim": [{"size": "64"}]}}}, "dtype": {"type": "DT_FLOAT"}}}, {"name": "model_91/tf.nn.convolution_622/convolution/filter", "op": "Const", "attr": {"value": {"tensor": {"dtype": "DT_FLOAT", "tensorShape": {"dim": [{"size": "3"}, {"size": "3"}, {"size": "64"}, {"size": "64"}]}}}, "dtype": {"type": "DT_FLOAT"}}}, {"name": "model_91/tf.math.add_343/Add/y", "op": "Const", "attr": {"value": {"tensor": {"dtype": "DT_FLOAT", "tensorShape": {"dim": [{"size": "64"}]}}}, "dtype": {"type": "DT_FLOAT"}}}, {"name": "model_91/tf.strided_slice_67/ones_like/tensor", "op": "Const", "attr": {"value": {"tensor": {"dtype": "DT_INT64", "tensorShape": {"dim": [{"size": "4"}]}}}, "dtype": {"type": "DT_INT64"}}}, {"name": "model_91/tf.strided_slice_67/StridedSlice/end", "op": "Const", "attr": {"value": {"tensor": {"dtype": "DT_INT64", "tensorShape": {"dim": [{"size": "4"}]}}}, "dtype": {"type": "DT_INT64"}}}, {"name": "model_91/tf.strided_slice_67/ones_like", "op": "Const", "attr": {"value": {"tensor": {"dtype": "DT_INT64", "tensorShape": {"dim": [{"size": "4"}]}}}, "dtype": {"type": "DT_INT64"}}}, {"name": "model_91/tf.strided_slice_65/ones_like/tensor", "op": "Const", "attr": {"value": {"tensor": {"dtype": "DT_INT64", "tensorShape": {"dim": [{"size": "4"}]}}}, "dtype": {"type": "DT_INT64"}}}, {"name": "model_91/tf.strided_slice_65/StridedSlice/end", "op": "Const", "attr": {"value": {"tensor": {"dtype": "DT_INT64", "tensorShape": {"dim": [{"size": "4"}]}}}, "dtype": {"type": "DT_INT64"}}}, {"name": "model_91/tf.strided_slice_65/ones_like", "op": "Const", "attr": {"value": {"tensor": {"dtype": "DT_INT64", "tensorShape": {"dim": [{"size": "4"}]}}}, "dtype": {"type": "DT_INT64"}}}, {"name": "model_91/tf.image.resize_5/resize/size", "op": "Const", "attr": {"value": {"tensor": {"dtype": "DT_INT32", "tensorShape": {"dim": [{"size": "2"}]}}}, "dtype": {"type": "DT_INT32"}}}, {"name": "model_91/tf.concat_67/concat/axis", "op": "Const", "attr": {"value": {"tensor": {"dtype": "DT_INT32", "tensorShape": {}}}, "dtype": {"type": "DT_INT32"}}}, {"name": "model_91/tf.nn.convolution_594/convolution/filter", "op": "Const", "attr": {"value": {"tensor": {"dtype": "DT_FLOAT", "tensorShape": {"dim": [{"size": "1"}, {"size": "1"}, {"size": "256"}, {"size": "64"}]}}}, "dtype": {"type": "DT_FLOAT"}}}, {"name": "model_91/tf.math.add_305/Add/y", "op": "Const", "attr": {"value": {"tensor": {"dtype": "DT_FLOAT", "tensorShape": {"dim": [{"size": "64"}]}}}, "dtype": {"type": "DT_FLOAT"}}}, {"name": "model_91/tf.strided_slice_66/ones_like/tensor", "op": "Const", "attr": {"value": {"tensor": {"dtype": "DT_INT64", "tensorShape": {"dim": [{"size": "4"}]}}}, "dtype": {"type": "DT_INT64"}}}, {"name": "model_91/tf.strided_slice_66/StridedSlice/end", "op": "Const", "attr": {"value": {"tensor": {"dtype": "DT_INT64", "tensorShape": {"dim": [{"size": "4"}]}}}, "dtype": {"type": "DT_INT64"}}}, {"name": "model_91/tf.strided_slice_66/ones_like", "op": "Const", "attr": {"value": {"tensor": {"dtype": "DT_INT64", "tensorShape": {"dim": [{"size": "4"}]}}}, "dtype": {"type": "DT_INT64"}}}, {"name": "model_91/tf.nn.convolution_595/convolution/filter", "op": "Const", "attr": {"value": {"tensor": {"dtype": "DT_FLOAT", "tensorShape": {"dim": [{"size": "3"}, {"size": "3"}, {"size": "32"}, {"size": "16"}]}}}, "dtype": {"type": "DT_FLOAT"}}}, {"name": "model_91/tf.math.add_306/Add/y", "op": "Const", "attr": {"value": {"tensor": {"dtype": "DT_FLOAT", "tensorShape": {"dim": [{"size": "16"}]}}}, "dtype": {"type": "DT_FLOAT"}}}, {"name": "model_91/tf.nn.convolution_596/convolution/filter", "op": "Const", "attr": {"value": {"tensor": {"dtype": "DT_FLOAT", "tensorShape": {"dim": [{"size": "3"}, {"size": "3"}, {"size": "16"}, {"size": "32"}]}}}, "dtype": {"type": "DT_FLOAT"}}}, {"name": "model_91/tf.math.add_307/Add/y", "op": "Const", "attr": {"value": {"tensor": {"dtype": "DT_FLOAT", "tensorShape": {"dim": [{"size": "32"}]}}}, "dtype": {"type": "DT_FLOAT"}}}, {"name": "model_91/tf.concat_68/concat/axis", "op": "Const", "attr": {"value": {"tensor": {"dtype": "DT_INT32", "tensorShape": {}}}, "dtype": {"type": "DT_INT32"}}}, {"name": "model_91/tf.nn.convolution_597/convolution/filter", "op": "Const", "attr": {"value": {"tensor": {"dtype": "DT_FLOAT", "tensorShape": {"dim": [{"size": "1"}, {"size": "1"}, {"size": "96"}, {"size": "64"}]}}}, "dtype": {"type": "DT_FLOAT"}}}, {"name": "model_91/tf.math.add_310/Add/y", "op": "Const", "attr": {"value": {"tensor": {"dtype": "DT_FLOAT", "tensorShape": {"dim": [{"size": "64"}]}}}, "dtype": {"type": "DT_FLOAT"}}}, {"name": "model_91/tf.compat.v1.pad_20/Pad/paddings", "op": "Const", "attr": {"value": {"tensor": {"dtype": "DT_INT32", "tensorShape": {"dim": [{"size": "4"}, {"size": "2"}]}}}, "dtype": {"type": "DT_INT32"}}}, {"name": "model_91/tf.nn.convolution_598/convolution/filter", "op": "Const", "attr": {"value": {"tensor": {"dtype": "DT_FLOAT", "tensorShape": {"dim": [{"size": "3"}, {"size": "3"}, {"size": "64"}, {"size": "64"}]}}}, "dtype": {"type": "DT_FLOAT"}}}, {"name": "model_91/tf.math.add_311/Add/y", "op": "Const", "attr": {"value": {"tensor": {"dtype": "DT_FLOAT", "tensorShape": {"dim": [{"size": "64"}]}}}, "dtype": {"type": "DT_FLOAT"}}}, {"name": "model_91/tf.strided_slice_63/ones_like/tensor", "op": "Const", "attr": {"value": {"tensor": {"dtype": "DT_INT64", "tensorShape": {"dim": [{"size": "4"}]}}}, "dtype": {"type": "DT_INT64"}}}, {"name": "model_91/tf.strided_slice_63/StridedSlice/end", "op": "Const", "attr": {"value": {"tensor": {"dtype": "DT_INT64", "tensorShape": {"dim": [{"size": "4"}]}}}, "dtype": {"type": "DT_INT64"}}}, {"name": "model_91/tf.strided_slice_63/ones_like", "op": "Const", "attr": {"value": {"tensor": {"dtype": "DT_INT64", "tensorShape": {"dim": [{"size": "4"}]}}}, "dtype": {"type": "DT_INT64"}}}, {"name": "model_91/tf.image.resize_4/resize/size", "op": "Const", "attr": {"value": {"tensor": {"dtype": "DT_INT32", "tensorShape": {"dim": [{"size": "2"}]}}}, "dtype": {"type": "DT_INT32"}}}, {"name": "model_91/tf.concat_65/concat/axis", "op": "Const", "attr": {"value": {"tensor": {"dtype": "DT_INT32", "tensorShape": {}}}, "dtype": {"type": "DT_INT32"}}}, {"name": "model_91/tf.nn.convolution_590/convolution/filter", "op": "Const", "attr": {"value": {"tensor": {"dtype": "DT_FLOAT", "tensorShape": {"dim": [{"size": "1"}, {"size": "1"}, {"size": "384"}, {"size": "128"}]}}}, "dtype": {"type": "DT_FLOAT"}}}, {"name": "model_91/tf.math.add_299/Add/y", "op": "Const", "attr": {"value": {"tensor": {"dtype": "DT_FLOAT", "tensorShape": {"dim": [{"size": "128"}]}}}, "dtype": {"type": "DT_FLOAT"}}}, {"name": "model_91/tf.strided_slice_64/ones_like/tensor", "op": "Const", "attr": {"value": {"tensor": {"dtype": "DT_INT64", "tensorShape": {"dim": [{"size": "4"}]}}}, "dtype": {"type": "DT_INT64"}}}, {"name": "model_91/tf.strided_slice_64/StridedSlice/end", "op": "Const", "attr": {"value": {"tensor": {"dtype": "DT_INT64", "tensorShape": {"dim": [{"size": "4"}]}}}, "dtype": {"type": "DT_INT64"}}}, {"name": "model_91/tf.strided_slice_64/ones_like", "op": "Const", "attr": {"value": {"tensor": {"dtype": "DT_INT64", "tensorShape": {"dim": [{"size": "4"}]}}}, "dtype": {"type": "DT_INT64"}}}, {"name": "model_91/tf.nn.convolution_591/convolution/filter", "op": "Const", "attr": {"value": {"tensor": {"dtype": "DT_FLOAT", "tensorShape": {"dim": [{"size": "3"}, {"size": "3"}, {"size": "64"}, {"size": "32"}]}}}, "dtype": {"type": "DT_FLOAT"}}}, {"name": "model_91/tf.math.add_300/Add/y", "op": "Const", "attr": {"value": {"tensor": {"dtype": "DT_FLOAT", "tensorShape": {"dim": [{"size": "32"}]}}}, "dtype": {"type": "DT_FLOAT"}}}, {"name": "model_91/tf.nn.convolution_592/convolution/filter", "op": "Const", "attr": {"value": {"tensor": {"dtype": "DT_FLOAT", "tensorShape": {"dim": [{"size": "3"}, {"size": "3"}, {"size": "32"}, {"size": "64"}]}}}, "dtype": {"type": "DT_FLOAT"}}}, {"name": "model_91/tf.math.add_301/Add/y", "op": "Const", "attr": {"value": {"tensor": {"dtype": "DT_FLOAT", "tensorShape": {"dim": [{"size": "64"}]}}}, "dtype": {"type": "DT_FLOAT"}}}, {"name": "model_91/tf.concat_66/concat/axis", "op": "Const", "attr": {"value": {"tensor": {"dtype": "DT_INT32", "tensorShape": {}}}, "dtype": {"type": "DT_INT32"}}}, {"name": "model_91/tf.nn.convolution_593/convolution/filter", "op": "Const", "attr": {"value": {"tensor": {"dtype": "DT_FLOAT", "tensorShape": {"dim": [{"size": "1"}, {"size": "1"}, {"size": "192"}, {"size": "128"}]}}}, "dtype": {"type": "DT_FLOAT"}}}, {"name": "model_91/tf.math.add_304/Add/y", "op": "Const", "attr": {"value": {"tensor": {"dtype": "DT_FLOAT", "tensorShape": {"dim": [{"size": "128"}]}}}, "dtype": {"type": "DT_FLOAT"}}}, {"name": "model_91/tf.concat_69/concat/axis", "op": "Const", "attr": {"value": {"tensor": {"dtype": "DT_INT32", "tensorShape": {}}}, "dtype": {"type": "DT_INT32"}}}, {"name": "model_91/tf.nn.convolution_602/convolution/filter", "op": "Const", "attr": {"value": {"tensor": {"dtype": "DT_FLOAT", "tensorShape": {"dim": [{"size": "1"}, {"size": "1"}, {"size": "192"}, {"size": "128"}]}}}, "dtype": {"type": "DT_FLOAT"}}}, {"name": "model_91/tf.math.add_316/Add/y", "op": "Const", "attr": {"value": {"tensor": {"dtype": "DT_FLOAT", "tensorShape": {"dim": [{"size": "128"}]}}}, "dtype": {"type": "DT_FLOAT"}}}, {"name": "model_91/tf.strided_slice_68/ones_like/tensor", "op": "Const", "attr": {"value": {"tensor": {"dtype": "DT_INT64", "tensorShape": {"dim": [{"size": "4"}]}}}, "dtype": {"type": "DT_INT64"}}}, {"name": "model_91/tf.strided_slice_68/StridedSlice/end", "op": "Const", "attr": {"value": {"tensor": {"dtype": "DT_INT64", "tensorShape": {"dim": [{"size": "4"}]}}}, "dtype": {"type": "DT_INT64"}}}, {"name": "model_91/tf.strided_slice_68/ones_like", "op": "Const", "attr": {"value": {"tensor": {"dtype": "DT_INT64", "tensorShape": {"dim": [{"size": "4"}]}}}, "dtype": {"type": "DT_INT64"}}}, {"name": "model_91/tf.nn.convolution_604/convolution/filter", "op": "Const", "attr": {"value": {"tensor": {"dtype": "DT_FLOAT", "tensorShape": {"dim": [{"size": "3"}, {"size": "3"}, {"size": "64"}, {"size": "32"}]}}}, "dtype": {"type": "DT_FLOAT"}}}, {"name": "model_91/tf.math.add_319/Add/y", "op": "Const", "attr": {"value": {"tensor": {"dtype": "DT_FLOAT", "tensorShape": {"dim": [{"size": "32"}]}}}, "dtype": {"type": "DT_FLOAT"}}}, {"name": "model_91/tf.nn.convolution_606/convolution/filter", "op": "Const", "attr": {"value": {"tensor": {"dtype": "DT_FLOAT", "tensorShape": {"dim": [{"size": "3"}, {"size": "3"}, {"size": "32"}, {"size": "64"}]}}}, "dtype": {"type": "DT_FLOAT"}}}, {"name": "model_91/tf.math.add_321/Add/y", "op": "Const", "attr": {"value": {"tensor": {"dtype": "DT_FLOAT", "tensorShape": {"dim": [{"size": "64"}]}}}, "dtype": {"type": "DT_FLOAT"}}}, {"name": "model_91/tf.concat_71/concat/axis", "op": "Const", "attr": {"value": {"tensor": {"dtype": "DT_INT32", "tensorShape": {}}}, "dtype": {"type": "DT_INT32"}}}, {"name": "model_91/tf.nn.convolution_608/convolution/filter", "op": "Const", "attr": {"value": {"tensor": {"dtype": "DT_FLOAT", "tensorShape": {"dim": [{"size": "1"}, {"size": "1"}, {"size": "192"}, {"size": "128"}]}}}, "dtype": {"type": "DT_FLOAT"}}}, {"name": "model_91/tf.math.add_325/Add/y", "op": "Const", "attr": {"value": {"tensor": {"dtype": "DT_FLOAT", "tensorShape": {"dim": [{"size": "128"}]}}}, "dtype": {"type": "DT_FLOAT"}}}, {"name": "model_91/tf.compat.v1.pad_21/Pad/paddings", "op": "Const", "attr": {"value": {"tensor": {"dtype": "DT_INT32", "tensorShape": {"dim": [{"size": "4"}, {"size": "2"}]}}}, "dtype": {"type": "DT_INT32"}}}, {"name": "model_91/tf.nn.convolution_609/convolution/filter", "op": "Const", "attr": {"value": {"tensor": {"dtype": "DT_FLOAT", "tensorShape": {"dim": [{"size": "3"}, {"size": "3"}, {"size": "128"}, {"size": "128"}]}}}, "dtype": {"type": "DT_FLOAT"}}}, {"name": "model_91/tf.math.add_326/Add/y", "op": "Const", "attr": {"value": {"tensor": {"dtype": "DT_FLOAT", "tensorShape": {"dim": [{"size": "128"}]}}}, "dtype": {"type": "DT_FLOAT"}}}, {"name": "model_91/tf.strided_slice_58/StridedSlice/begin", "op": "Const", "attr": {"value": {"tensor": {"dtype": "DT_INT32", "tensorShape": {"dim": [{"size": "4"}]}}}, "dtype": {"type": "DT_INT32"}}}, {"name": "model_91/tf.strided_slice_58/StridedSlice/end", "op": "Const", "attr": {"value": {"tensor": {"dtype": "DT_INT32", "tensorShape": {"dim": [{"size": "4"}]}}}, "dtype": {"type": "DT_INT32"}}}, {"name": "model_91/tf.strided_slice_58/ones_like", "op": "Const", "attr": {"value": {"tensor": {"dtype": "DT_INT32", "tensorShape": {"dim": [{"size": "4"}]}}}, "dtype": {"type": "DT_INT32"}}}, {"name": "model_91/tf.math.add_295/Add/y", "op": "Const", "attr": {"value": {"tensor": {"dtype": "DT_FLOAT", "tensorShape": {"dim": [{"size": "128"}]}}}, "dtype": {"type": "DT_FLOAT"}}}, {"name": "model_91/tf.math.add_288/Add/y", "op": "Const", "attr": {"value": {"tensor": {"dtype": "DT_FLOAT", "tensorShape": {"dim": [{"size": "128"}]}}}, "dtype": {"type": "DT_FLOAT"}}}, {"name": "model_91/tf.strided_slice_60/StridedSlice/begin", "op": "Const", "attr": {"value": {"tensor": {"dtype": "DT_INT32", "tensorShape": {"dim": [{"size": "4"}]}}}, "dtype": {"type": "DT_INT32"}}}, {"name": "model_91/tf.strided_slice_60/StridedSlice/end", "op": "Const", "attr": {"value": {"tensor": {"dtype": "DT_INT32", "tensorShape": {"dim": [{"size": "4"}]}}}, "dtype": {"type": "DT_INT32"}}}, {"name": "model_91/tf.strided_slice_60/ones_like", "op": "Const", "attr": {"value": {"tensor": {"dtype": "DT_INT32", "tensorShape": {"dim": [{"size": "4"}]}}}, "dtype": {"type": "DT_INT32"}}}, {"name": "model_91/tf.strided_slice_61/StridedSlice/begin", "op": "Const", "attr": {"value": {"tensor": {"dtype": "DT_INT32", "tensorShape": {"dim": [{"size": "4"}]}}}, "dtype": {"type": "DT_INT32"}}}, {"name": "model_91/tf.strided_slice_61/StridedSlice/end", "op": "Const", "attr": {"value": {"tensor": {"dtype": "DT_INT32", "tensorShape": {"dim": [{"size": "4"}]}}}, "dtype": {"type": "DT_INT32"}}}, {"name": "model_91/tf.strided_slice_61/ones_like", "op": "Const", "attr": {"value": {"tensor": {"dtype": "DT_INT32", "tensorShape": {"dim": [{"size": "4"}]}}}, "dtype": {"type": "DT_INT32"}}}, {"name": "model_91/tf.math.multiply_1612/Mul/y", "op": "Const", "attr": {"value": {"tensor": {"dtype": "DT_FLOAT", "tensorShape": {}}}, "dtype": {"type": "DT_FLOAT"}}}, {"name": "model_91/tf.reshape_56/Reshape/shape", "op": "Const", "attr": {"value": {"tensor": {"dtype": "DT_INT32", "tensorShape": {"dim": [{"size": "4"}]}}}, "dtype": {"type": "DT_INT32"}}}, {"name": "model_91/tf.compat.v1.transpose_340/transpose/perm", "op": "Const", "attr": {"value": {"tensor": {"dtype": "DT_INT32", "tensorShape": {"dim": [{"size": "4"}]}}}, "dtype": {"type": "DT_INT32"}}}, {"name": "model_91/tf.nn.convolution_458/convolution/filter", "op": "Const", "attr": {"value": {"tensor": {"dtype": "DT_FLOAT", "tensorShape": {"dim": [{"size": "3"}, {"size": "3"}, {"size": "1"}, {"size": "1"}]}}}, "dtype": {"type": "DT_FLOAT"}}}, {"name": "model_91/tf.nn.convolution_459/convolution/filter", "op": "Const", "attr": {"value": {"tensor": {"dtype": "DT_FLOAT", "tensorShape": {"dim": [{"size": "3"}, {"size": "3"}, {"size": "1"}, {"size": "1"}]}}}, "dtype": {"type": "DT_FLOAT"}}}, {"name": "model_91/tf.nn.convolution_460/convolution/filter", "op": "Const", "attr": {"value": {"tensor": {"dtype": "DT_FLOAT", "tensorShape": {"dim": [{"size": "3"}, {"size": "3"}, {"size": "1"}, {"size": "1"}]}}}, "dtype": {"type": "DT_FLOAT"}}}, {"name": "model_91/tf.nn.convolution_461/convolution/filter", "op": "Const", "attr": {"value": {"tensor": {"dtype": "DT_FLOAT", "tensorShape": {"dim": [{"size": "3"}, {"size": "3"}, {"size": "1"}, {"size": "1"}]}}}, "dtype": {"type": "DT_FLOAT"}}}, {"name": "model_91/tf.nn.convolution_462/convolution/filter", "op": "Const", "attr": {"value": {"tensor": {"dtype": "DT_FLOAT", "tensorShape": {"dim": [{"size": "3"}, {"size": "3"}, {"size": "1"}, {"size": "1"}]}}}, "dtype": {"type": "DT_FLOAT"}}}, {"name": "model_91/tf.nn.convolution_463/convolution/filter", "op": "Const", "attr": {"value": {"tensor": {"dtype": "DT_FLOAT", "tensorShape": {"dim": [{"size": "3"}, {"size": "3"}, {"size": "1"}, {"size": "1"}]}}}, "dtype": {"type": "DT_FLOAT"}}}, {"name": "model_91/tf.nn.convolution_464/convolution/filter", "op": "Const", "attr": {"value": {"tensor": {"dtype": "DT_FLOAT", "tensorShape": {"dim": [{"size": "3"}, {"size": "3"}, {"size": "1"}, {"size": "1"}]}}}, "dtype": {"type": "DT_FLOAT"}}}, {"name": "model_91/tf.nn.convolution_465/convolution/filter", "op": "Const", "attr": {"value": {"tensor": {"dtype": "DT_FLOAT", "tensorShape": {"dim": [{"size": "3"}, {"size": "3"}, {"size": "1"}, {"size": "1"}]}}}, "dtype": {"type": "DT_FLOAT"}}}, {"name": "model_91/tf.nn.convolution_466/convolution/filter", "op": "Const", "attr": {"value": {"tensor": {"dtype": "DT_FLOAT", "tensorShape": {"dim": [{"size": "3"}, {"size": "3"}, {"size": "1"}, {"size": "1"}]}}}, "dtype": {"type": "DT_FLOAT"}}}, {"name": "model_91/tf.nn.convolution_467/convolution/filter", "op": "Const", "attr": {"value": {"tensor": {"dtype": "DT_FLOAT", "tensorShape": {"dim": [{"size": "3"}, {"size": "3"}, {"size": "1"}, {"size": "1"}]}}}, "dtype": {"type": "DT_FLOAT"}}}, {"name": "model_91/tf.nn.convolution_468/convolution/filter", "op": "Const", "attr": {"value": {"tensor": {"dtype": "DT_FLOAT", "tensorShape": {"dim": [{"size": "3"}, {"size": "3"}, {"size": "1"}, {"size": "1"}]}}}, "dtype": {"type": "DT_FLOAT"}}}, {"name": "model_91/tf.nn.convolution_469/convolution/filter", "op": "Const", "attr": {"value": {"tensor": {"dtype": "DT_FLOAT", "tensorShape": {"dim": [{"size": "3"}, {"size": "3"}, {"size": "1"}, {"size": "1"}]}}}, "dtype": {"type": "DT_FLOAT"}}}, {"name": "model_91/tf.nn.convolution_470/convolution/filter", "op": "Const", "attr": {"value": {"tensor": {"dtype": "DT_FLOAT", "tensorShape": {"dim": [{"size": "3"}, {"size": "3"}, {"size": "1"}, {"size": "1"}]}}}, "dtype": {"type": "DT_FLOAT"}}}, {"name": "model_91/tf.nn.convolution_471/convolution/filter", "op": "Const", "attr": {"value": {"tensor": {"dtype": "DT_FLOAT", "tensorShape": {"dim": [{"size": "3"}, {"size": "3"}, {"size": "1"}, {"size": "1"}]}}}, "dtype": {"type": "DT_FLOAT"}}}, {"name": "model_91/tf.nn.convolution_472/convolution/filter", "op": "Const", "attr": {"value": {"tensor": {"dtype": "DT_FLOAT", "tensorShape": {"dim": [{"size": "3"}, {"size": "3"}, {"size": "1"}, {"size": "1"}]}}}, "dtype": {"type": "DT_FLOAT"}}}, {"name": "model_91/tf.nn.convolution_473/convolution/filter", "op": "Const", "attr": {"value": {"tensor": {"dtype": "DT_FLOAT", "tensorShape": {"dim": [{"size": "3"}, {"size": "3"}, {"size": "1"}, {"size": "1"}]}}}, "dtype": {"type": "DT_FLOAT"}}}, {"name": "model_91/tf.nn.convolution_474/convolution/filter", "op": "Const", "attr": {"value": {"tensor": {"dtype": "DT_FLOAT", "tensorShape": {"dim": [{"size": "3"}, {"size": "3"}, {"size": "1"}, {"size": "1"}]}}}, "dtype": {"type": "DT_FLOAT"}}}, {"name": "model_91/tf.nn.convolution_475/convolution/filter", "op": "Const", "attr": {"value": {"tensor": {"dtype": "DT_FLOAT", "tensorShape": {"dim": [{"size": "3"}, {"size": "3"}, {"size": "1"}, {"size": "1"}]}}}, "dtype": {"type": "DT_FLOAT"}}}, {"name": "model_91/tf.nn.convolution_476/convolution/filter", "op": "Const", "attr": {"value": {"tensor": {"dtype": "DT_FLOAT", "tensorShape": {"dim": [{"size": "3"}, {"size": "3"}, {"size": "1"}, {"size": "1"}]}}}, "dtype": {"type": "DT_FLOAT"}}}, {"name": "model_91/tf.nn.convolution_477/convolution/filter", "op": "Const", "attr": {"value": {"tensor": {"dtype": "DT_FLOAT", "tensorShape": {"dim": [{"size": "3"}, {"size": "3"}, {"size": "1"}, {"size": "1"}]}}}, "dtype": {"type": "DT_FLOAT"}}}, {"name": "model_91/tf.nn.convolution_478/convolution/filter", "op": "Const", "attr": {"value": {"tensor": {"dtype": "DT_FLOAT", "tensorShape": {"dim": [{"size": "3"}, {"size": "3"}, {"size": "1"}, {"size": "1"}]}}}, "dtype": {"type": "DT_FLOAT"}}}, {"name": "model_91/tf.nn.convolution_479/convolution/filter", "op": "Const", "attr": {"value": {"tensor": {"dtype": "DT_FLOAT", "tensorShape": {"dim": [{"size": "3"}, {"size": "3"}, {"size": "1"}, {"size": "1"}]}}}, "dtype": {"type": "DT_FLOAT"}}}, {"name": "model_91/tf.nn.convolution_480/convolution/filter", "op": "Const", "attr": {"value": {"tensor": {"dtype": "DT_FLOAT", "tensorShape": {"dim": [{"size": "3"}, {"size": "3"}, {"size": "1"}, {"size": "1"}]}}}, "dtype": {"type": "DT_FLOAT"}}}, {"name": "model_91/tf.nn.convolution_481/convolution/filter", "op": "Const", "attr": {"value": {"tensor": {"dtype": "DT_FLOAT", "tensorShape": {"dim": [{"size": "3"}, {"size": "3"}, {"size": "1"}, {"size": "1"}]}}}, "dtype": {"type": "DT_FLOAT"}}}, {"name": "model_91/tf.nn.convolution_482/convolution/filter", "op": "Const", "attr": {"value": {"tensor": {"dtype": "DT_FLOAT", "tensorShape": {"dim": [{"size": "3"}, {"size": "3"}, {"size": "1"}, {"size": "1"}]}}}, "dtype": {"type": "DT_FLOAT"}}}, {"name": "model_91/tf.nn.convolution_483/convolution/filter", "op": "Const", "attr": {"value": {"tensor": {"dtype": "DT_FLOAT", "tensorShape": {"dim": [{"size": "3"}, {"size": "3"}, {"size": "1"}, {"size": "1"}]}}}, "dtype": {"type": "DT_FLOAT"}}}, {"name": "model_91/tf.nn.convolution_484/convolution/filter", "op": "Const", "attr": {"value": {"tensor": {"dtype": "DT_FLOAT", "tensorShape": {"dim": [{"size": "3"}, {"size": "3"}, {"size": "1"}, {"size": "1"}]}}}, "dtype": {"type": "DT_FLOAT"}}}, {"name": "model_91/tf.nn.convolution_485/convolution/filter", "op": "Const", "attr": {"value": {"tensor": {"dtype": "DT_FLOAT", "tensorShape": {"dim": [{"size": "3"}, {"size": "3"}, {"size": "1"}, {"size": "1"}]}}}, "dtype": {"type": "DT_FLOAT"}}}, {"name": "model_91/tf.nn.convolution_486/convolution/filter", "op": "Const", "attr": {"value": {"tensor": {"dtype": "DT_FLOAT", "tensorShape": {"dim": [{"size": "3"}, {"size": "3"}, {"size": "1"}, {"size": "1"}]}}}, "dtype": {"type": "DT_FLOAT"}}}, {"name": "model_91/tf.nn.convolution_487/convolution/filter", "op": "Const", "attr": {"value": {"tensor": {"dtype": "DT_FLOAT", "tensorShape": {"dim": [{"size": "3"}, {"size": "3"}, {"size": "1"}, {"size": "1"}]}}}, "dtype": {"type": "DT_FLOAT"}}}, {"name": "model_91/tf.nn.convolution_488/convolution/filter", "op": "Const", "attr": {"value": {"tensor": {"dtype": "DT_FLOAT", "tensorShape": {"dim": [{"size": "3"}, {"size": "3"}, {"size": "1"}, {"size": "1"}]}}}, "dtype": {"type": "DT_FLOAT"}}}, {"name": "model_91/tf.nn.convolution_489/convolution/filter", "op": "Const", "attr": {"value": {"tensor": {"dtype": "DT_FLOAT", "tensorShape": {"dim": [{"size": "3"}, {"size": "3"}, {"size": "1"}, {"size": "1"}]}}}, "dtype": {"type": "DT_FLOAT"}}}, {"name": "model_91/tf.nn.convolution_490/convolution/filter", "op": "Const", "attr": {"value": {"tensor": {"dtype": "DT_FLOAT", "tensorShape": {"dim": [{"size": "3"}, {"size": "3"}, {"size": "1"}, {"size": "1"}]}}}, "dtype": {"type": "DT_FLOAT"}}}, {"name": "model_91/tf.nn.convolution_491/convolution/filter", "op": "Const", "attr": {"value": {"tensor": {"dtype": "DT_FLOAT", "tensorShape": {"dim": [{"size": "3"}, {"size": "3"}, {"size": "1"}, {"size": "1"}]}}}, "dtype": {"type": "DT_FLOAT"}}}, {"name": "model_91/tf.nn.convolution_492/convolution/filter", "op": "Const", "attr": {"value": {"tensor": {"dtype": "DT_FLOAT", "tensorShape": {"dim": [{"size": "3"}, {"size": "3"}, {"size": "1"}, {"size": "1"}]}}}, "dtype": {"type": "DT_FLOAT"}}}, {"name": "model_91/tf.nn.convolution_493/convolution/filter", "op": "Const", "attr": {"value": {"tensor": {"dtype": "DT_FLOAT", "tensorShape": {"dim": [{"size": "3"}, {"size": "3"}, {"size": "1"}, {"size": "1"}]}}}, "dtype": {"type": "DT_FLOAT"}}}, {"name": "model_91/tf.nn.convolution_494/convolution/filter", "op": "Const", "attr": {"value": {"tensor": {"dtype": "DT_FLOAT", "tensorShape": {"dim": [{"size": "3"}, {"size": "3"}, {"size": "1"}, {"size": "1"}]}}}, "dtype": {"type": "DT_FLOAT"}}}, {"name": "model_91/tf.nn.convolution_495/convolution/filter", "op": "Const", "attr": {"value": {"tensor": {"dtype": "DT_FLOAT", "tensorShape": {"dim": [{"size": "3"}, {"size": "3"}, {"size": "1"}, {"size": "1"}]}}}, "dtype": {"type": "DT_FLOAT"}}}, {"name": "model_91/tf.nn.convolution_496/convolution/filter", "op": "Const", "attr": {"value": {"tensor": {"dtype": "DT_FLOAT", "tensorShape": {"dim": [{"size": "3"}, {"size": "3"}, {"size": "1"}, {"size": "1"}]}}}, "dtype": {"type": "DT_FLOAT"}}}, {"name": "model_91/tf.nn.convolution_497/convolution/filter", "op": "Const", "attr": {"value": {"tensor": {"dtype": "DT_FLOAT", "tensorShape": {"dim": [{"size": "3"}, {"size": "3"}, {"size": "1"}, {"size": "1"}]}}}, "dtype": {"type": "DT_FLOAT"}}}, {"name": "model_91/tf.nn.convolution_498/convolution/filter", "op": "Const", "attr": {"value": {"tensor": {"dtype": "DT_FLOAT", "tensorShape": {"dim": [{"size": "3"}, {"size": "3"}, {"size": "1"}, {"size": "1"}]}}}, "dtype": {"type": "DT_FLOAT"}}}, {"name": "model_91/tf.nn.convolution_499/convolution/filter", "op": "Const", "attr": {"value": {"tensor": {"dtype": "DT_FLOAT", "tensorShape": {"dim": [{"size": "3"}, {"size": "3"}, {"size": "1"}, {"size": "1"}]}}}, "dtype": {"type": "DT_FLOAT"}}}, {"name": "model_91/tf.nn.convolution_500/convolution/filter", "op": "Const", "attr": {"value": {"tensor": {"dtype": "DT_FLOAT", "tensorShape": {"dim": [{"size": "3"}, {"size": "3"}, {"size": "1"}, {"size": "1"}]}}}, "dtype": {"type": "DT_FLOAT"}}}, {"name": "model_91/tf.nn.convolution_501/convolution/filter", "op": "Const", "attr": {"value": {"tensor": {"dtype": "DT_FLOAT", "tensorShape": {"dim": [{"size": "3"}, {"size": "3"}, {"size": "1"}, {"size": "1"}]}}}, "dtype": {"type": "DT_FLOAT"}}}, {"name": "model_91/tf.nn.convolution_502/convolution/filter", "op": "Const", "attr": {"value": {"tensor": {"dtype": "DT_FLOAT", "tensorShape": {"dim": [{"size": "3"}, {"size": "3"}, {"size": "1"}, {"size": "1"}]}}}, "dtype": {"type": "DT_FLOAT"}}}, {"name": "model_91/tf.nn.convolution_503/convolution/filter", "op": "Const", "attr": {"value": {"tensor": {"dtype": "DT_FLOAT", "tensorShape": {"dim": [{"size": "3"}, {"size": "3"}, {"size": "1"}, {"size": "1"}]}}}, "dtype": {"type": "DT_FLOAT"}}}, {"name": "model_91/tf.nn.convolution_504/convolution/filter", "op": "Const", "attr": {"value": {"tensor": {"dtype": "DT_FLOAT", "tensorShape": {"dim": [{"size": "3"}, {"size": "3"}, {"size": "1"}, {"size": "1"}]}}}, "dtype": {"type": "DT_FLOAT"}}}, {"name": "model_91/tf.nn.convolution_505/convolution/filter", "op": "Const", "attr": {"value": {"tensor": {"dtype": "DT_FLOAT", "tensorShape": {"dim": [{"size": "3"}, {"size": "3"}, {"size": "1"}, {"size": "1"}]}}}, "dtype": {"type": "DT_FLOAT"}}}, {"name": "model_91/tf.nn.convolution_506/convolution/filter", "op": "Const", "attr": {"value": {"tensor": {"dtype": "DT_FLOAT", "tensorShape": {"dim": [{"size": "3"}, {"size": "3"}, {"size": "1"}, {"size": "1"}]}}}, "dtype": {"type": "DT_FLOAT"}}}, {"name": "model_91/tf.nn.convolution_507/convolution/filter", "op": "Const", "attr": {"value": {"tensor": {"dtype": "DT_FLOAT", "tensorShape": {"dim": [{"size": "3"}, {"size": "3"}, {"size": "1"}, {"size": "1"}]}}}, "dtype": {"type": "DT_FLOAT"}}}, {"name": "model_91/tf.nn.convolution_508/convolution/filter", "op": "Const", "attr": {"value": {"tensor": {"dtype": "DT_FLOAT", "tensorShape": {"dim": [{"size": "3"}, {"size": "3"}, {"size": "1"}, {"size": "1"}]}}}, "dtype": {"type": "DT_FLOAT"}}}, {"name": "model_91/tf.nn.convolution_509/convolution/filter", "op": "Const", "attr": {"value": {"tensor": {"dtype": "DT_FLOAT", "tensorShape": {"dim": [{"size": "3"}, {"size": "3"}, {"size": "1"}, {"size": "1"}]}}}, "dtype": {"type": "DT_FLOAT"}}}, {"name": "model_91/tf.nn.convolution_510/convolution/filter", "op": "Const", "attr": {"value": {"tensor": {"dtype": "DT_FLOAT", "tensorShape": {"dim": [{"size": "3"}, {"size": "3"}, {"size": "1"}, {"size": "1"}]}}}, "dtype": {"type": "DT_FLOAT"}}}, {"name": "model_91/tf.nn.convolution_511/convolution/filter", "op": "Const", "attr": {"value": {"tensor": {"dtype": "DT_FLOAT", "tensorShape": {"dim": [{"size": "3"}, {"size": "3"}, {"size": "1"}, {"size": "1"}]}}}, "dtype": {"type": "DT_FLOAT"}}}, {"name": "model_91/tf.nn.convolution_512/convolution/filter", "op": "Const", "attr": {"value": {"tensor": {"dtype": "DT_FLOAT", "tensorShape": {"dim": [{"size": "3"}, {"size": "3"}, {"size": "1"}, {"size": "1"}]}}}, "dtype": {"type": "DT_FLOAT"}}}, {"name": "model_91/tf.nn.convolution_513/convolution/filter", "op": "Const", "attr": {"value": {"tensor": {"dtype": "DT_FLOAT", "tensorShape": {"dim": [{"size": "3"}, {"size": "3"}, {"size": "1"}, {"size": "1"}]}}}, "dtype": {"type": "DT_FLOAT"}}}, {"name": "model_91/tf.nn.convolution_514/convolution/filter", "op": "Const", "attr": {"value": {"tensor": {"dtype": "DT_FLOAT", "tensorShape": {"dim": [{"size": "3"}, {"size": "3"}, {"size": "1"}, {"size": "1"}]}}}, "dtype": {"type": "DT_FLOAT"}}}, {"name": "model_91/tf.nn.convolution_515/convolution/filter", "op": "Const", "attr": {"value": {"tensor": {"dtype": "DT_FLOAT", "tensorShape": {"dim": [{"size": "3"}, {"size": "3"}, {"size": "1"}, {"size": "1"}]}}}, "dtype": {"type": "DT_FLOAT"}}}, {"name": "model_91/tf.nn.convolution_516/convolution/filter", "op": "Const", "attr": {"value": {"tensor": {"dtype": "DT_FLOAT", "tensorShape": {"dim": [{"size": "3"}, {"size": "3"}, {"size": "1"}, {"size": "1"}]}}}, "dtype": {"type": "DT_FLOAT"}}}, {"name": "model_91/tf.nn.convolution_517/convolution/filter", "op": "Const", "attr": {"value": {"tensor": {"dtype": "DT_FLOAT", "tensorShape": {"dim": [{"size": "3"}, {"size": "3"}, {"size": "1"}, {"size": "1"}]}}}, "dtype": {"type": "DT_FLOAT"}}}, {"name": "model_91/tf.nn.convolution_518/convolution/filter", "op": "Const", "attr": {"value": {"tensor": {"dtype": "DT_FLOAT", "tensorShape": {"dim": [{"size": "3"}, {"size": "3"}, {"size": "1"}, {"size": "1"}]}}}, "dtype": {"type": "DT_FLOAT"}}}, {"name": "model_91/tf.nn.convolution_519/convolution/filter", "op": "Const", "attr": {"value": {"tensor": {"dtype": "DT_FLOAT", "tensorShape": {"dim": [{"size": "3"}, {"size": "3"}, {"size": "1"}, {"size": "1"}]}}}, "dtype": {"type": "DT_FLOAT"}}}, {"name": "model_91/tf.nn.convolution_520/convolution/filter", "op": "Const", "attr": {"value": {"tensor": {"dtype": "DT_FLOAT", "tensorShape": {"dim": [{"size": "3"}, {"size": "3"}, {"size": "1"}, {"size": "1"}]}}}, "dtype": {"type": "DT_FLOAT"}}}, {"name": "model_91/tf.nn.convolution_521/convolution/filter", "op": "Const", "attr": {"value": {"tensor": {"dtype": "DT_FLOAT", "tensorShape": {"dim": [{"size": "3"}, {"size": "3"}, {"size": "1"}, {"size": "1"}]}}}, "dtype": {"type": "DT_FLOAT"}}}, {"name": "model_91/tf.nn.convolution_522/convolution/filter", "op": "Const", "attr": {"value": {"tensor": {"dtype": "DT_FLOAT", "tensorShape": {"dim": [{"size": "3"}, {"size": "3"}, {"size": "1"}, {"size": "1"}]}}}, "dtype": {"type": "DT_FLOAT"}}}, {"name": "model_91/tf.nn.convolution_523/convolution/filter", "op": "Const", "attr": {"value": {"tensor": {"dtype": "DT_FLOAT", "tensorShape": {"dim": [{"size": "3"}, {"size": "3"}, {"size": "1"}, {"size": "1"}]}}}, "dtype": {"type": "DT_FLOAT"}}}, {"name": "model_91/tf.nn.convolution_524/convolution/filter", "op": "Const", "attr": {"value": {"tensor": {"dtype": "DT_FLOAT", "tensorShape": {"dim": [{"size": "3"}, {"size": "3"}, {"size": "1"}, {"size": "1"}]}}}, "dtype": {"type": "DT_FLOAT"}}}, {"name": "model_91/tf.nn.convolution_525/convolution/filter", "op": "Const", "attr": {"value": {"tensor": {"dtype": "DT_FLOAT", "tensorShape": {"dim": [{"size": "3"}, {"size": "3"}, {"size": "1"}, {"size": "1"}]}}}, "dtype": {"type": "DT_FLOAT"}}}, {"name": "model_91/tf.nn.convolution_526/convolution/filter", "op": "Const", "attr": {"value": {"tensor": {"dtype": "DT_FLOAT", "tensorShape": {"dim": [{"size": "3"}, {"size": "3"}, {"size": "1"}, {"size": "1"}]}}}, "dtype": {"type": "DT_FLOAT"}}}, {"name": "model_91/tf.nn.convolution_527/convolution/filter", "op": "Const", "attr": {"value": {"tensor": {"dtype": "DT_FLOAT", "tensorShape": {"dim": [{"size": "3"}, {"size": "3"}, {"size": "1"}, {"size": "1"}]}}}, "dtype": {"type": "DT_FLOAT"}}}, {"name": "model_91/tf.nn.convolution_528/convolution/filter", "op": "Const", "attr": {"value": {"tensor": {"dtype": "DT_FLOAT", "tensorShape": {"dim": [{"size": "3"}, {"size": "3"}, {"size": "1"}, {"size": "1"}]}}}, "dtype": {"type": "DT_FLOAT"}}}, {"name": "model_91/tf.nn.convolution_529/convolution/filter", "op": "Const", "attr": {"value": {"tensor": {"dtype": "DT_FLOAT", "tensorShape": {"dim": [{"size": "3"}, {"size": "3"}, {"size": "1"}, {"size": "1"}]}}}, "dtype": {"type": "DT_FLOAT"}}}, {"name": "model_91/tf.nn.convolution_530/convolution/filter", "op": "Const", "attr": {"value": {"tensor": {"dtype": "DT_FLOAT", "tensorShape": {"dim": [{"size": "3"}, {"size": "3"}, {"size": "1"}, {"size": "1"}]}}}, "dtype": {"type": "DT_FLOAT"}}}, {"name": "model_91/tf.nn.convolution_531/convolution/filter", "op": "Const", "attr": {"value": {"tensor": {"dtype": "DT_FLOAT", "tensorShape": {"dim": [{"size": "3"}, {"size": "3"}, {"size": "1"}, {"size": "1"}]}}}, "dtype": {"type": "DT_FLOAT"}}}, {"name": "model_91/tf.nn.convolution_532/convolution/filter", "op": "Const", "attr": {"value": {"tensor": {"dtype": "DT_FLOAT", "tensorShape": {"dim": [{"size": "3"}, {"size": "3"}, {"size": "1"}, {"size": "1"}]}}}, "dtype": {"type": "DT_FLOAT"}}}, {"name": "model_91/tf.nn.convolution_533/convolution/filter", "op": "Const", "attr": {"value": {"tensor": {"dtype": "DT_FLOAT", "tensorShape": {"dim": [{"size": "3"}, {"size": "3"}, {"size": "1"}, {"size": "1"}]}}}, "dtype": {"type": "DT_FLOAT"}}}, {"name": "model_91/tf.nn.convolution_534/convolution/filter", "op": "Const", "attr": {"value": {"tensor": {"dtype": "DT_FLOAT", "tensorShape": {"dim": [{"size": "3"}, {"size": "3"}, {"size": "1"}, {"size": "1"}]}}}, "dtype": {"type": "DT_FLOAT"}}}, {"name": "model_91/tf.nn.convolution_535/convolution/filter", "op": "Const", "attr": {"value": {"tensor": {"dtype": "DT_FLOAT", "tensorShape": {"dim": [{"size": "3"}, {"size": "3"}, {"size": "1"}, {"size": "1"}]}}}, "dtype": {"type": "DT_FLOAT"}}}, {"name": "model_91/tf.nn.convolution_536/convolution/filter", "op": "Const", "attr": {"value": {"tensor": {"dtype": "DT_FLOAT", "tensorShape": {"dim": [{"size": "3"}, {"size": "3"}, {"size": "1"}, {"size": "1"}]}}}, "dtype": {"type": "DT_FLOAT"}}}, {"name": "model_91/tf.nn.convolution_537/convolution/filter", "op": "Const", "attr": {"value": {"tensor": {"dtype": "DT_FLOAT", "tensorShape": {"dim": [{"size": "3"}, {"size": "3"}, {"size": "1"}, {"size": "1"}]}}}, "dtype": {"type": "DT_FLOAT"}}}, {"name": "model_91/tf.nn.convolution_538/convolution/filter", "op": "Const", "attr": {"value": {"tensor": {"dtype": "DT_FLOAT", "tensorShape": {"dim": [{"size": "3"}, {"size": "3"}, {"size": "1"}, {"size": "1"}]}}}, "dtype": {"type": "DT_FLOAT"}}}, {"name": "model_91/tf.nn.convolution_539/convolution/filter", "op": "Const", "attr": {"value": {"tensor": {"dtype": "DT_FLOAT", "tensorShape": {"dim": [{"size": "3"}, {"size": "3"}, {"size": "1"}, {"size": "1"}]}}}, "dtype": {"type": "DT_FLOAT"}}}, {"name": "model_91/tf.nn.convolution_540/convolution/filter", "op": "Const", "attr": {"value": {"tensor": {"dtype": "DT_FLOAT", "tensorShape": {"dim": [{"size": "3"}, {"size": "3"}, {"size": "1"}, {"size": "1"}]}}}, "dtype": {"type": "DT_FLOAT"}}}, {"name": "model_91/tf.nn.convolution_541/convolution/filter", "op": "Const", "attr": {"value": {"tensor": {"dtype": "DT_FLOAT", "tensorShape": {"dim": [{"size": "3"}, {"size": "3"}, {"size": "1"}, {"size": "1"}]}}}, "dtype": {"type": "DT_FLOAT"}}}, {"name": "model_91/tf.nn.convolution_542/convolution/filter", "op": "Const", "attr": {"value": {"tensor": {"dtype": "DT_FLOAT", "tensorShape": {"dim": [{"size": "3"}, {"size": "3"}, {"size": "1"}, {"size": "1"}]}}}, "dtype": {"type": "DT_FLOAT"}}}, {"name": "model_91/tf.nn.convolution_543/convolution/filter", "op": "Const", "attr": {"value": {"tensor": {"dtype": "DT_FLOAT", "tensorShape": {"dim": [{"size": "3"}, {"size": "3"}, {"size": "1"}, {"size": "1"}]}}}, "dtype": {"type": "DT_FLOAT"}}}, {"name": "model_91/tf.nn.convolution_544/convolution/filter", "op": "Const", "attr": {"value": {"tensor": {"dtype": "DT_FLOAT", "tensorShape": {"dim": [{"size": "3"}, {"size": "3"}, {"size": "1"}, {"size": "1"}]}}}, "dtype": {"type": "DT_FLOAT"}}}, {"name": "model_91/tf.nn.convolution_545/convolution/filter", "op": "Const", "attr": {"value": {"tensor": {"dtype": "DT_FLOAT", "tensorShape": {"dim": [{"size": "3"}, {"size": "3"}, {"size": "1"}, {"size": "1"}]}}}, "dtype": {"type": "DT_FLOAT"}}}, {"name": "model_91/tf.nn.convolution_546/convolution/filter", "op": "Const", "attr": {"value": {"tensor": {"dtype": "DT_FLOAT", "tensorShape": {"dim": [{"size": "3"}, {"size": "3"}, {"size": "1"}, {"size": "1"}]}}}, "dtype": {"type": "DT_FLOAT"}}}, {"name": "model_91/tf.nn.convolution_547/convolution/filter", "op": "Const", "attr": {"value": {"tensor": {"dtype": "DT_FLOAT", "tensorShape": {"dim": [{"size": "3"}, {"size": "3"}, {"size": "1"}, {"size": "1"}]}}}, "dtype": {"type": "DT_FLOAT"}}}, {"name": "model_91/tf.nn.convolution_548/convolution/filter", "op": "Const", "attr": {"value": {"tensor": {"dtype": "DT_FLOAT", "tensorShape": {"dim": [{"size": "3"}, {"size": "3"}, {"size": "1"}, {"size": "1"}]}}}, "dtype": {"type": "DT_FLOAT"}}}, {"name": "model_91/tf.nn.convolution_549/convolution/filter", "op": "Const", "attr": {"value": {"tensor": {"dtype": "DT_FLOAT", "tensorShape": {"dim": [{"size": "3"}, {"size": "3"}, {"size": "1"}, {"size": "1"}]}}}, "dtype": {"type": "DT_FLOAT"}}}, {"name": "model_91/tf.nn.convolution_550/convolution/filter", "op": "Const", "attr": {"value": {"tensor": {"dtype": "DT_FLOAT", "tensorShape": {"dim": [{"size": "3"}, {"size": "3"}, {"size": "1"}, {"size": "1"}]}}}, "dtype": {"type": "DT_FLOAT"}}}, {"name": "model_91/tf.nn.convolution_551/convolution/filter", "op": "Const", "attr": {"value": {"tensor": {"dtype": "DT_FLOAT", "tensorShape": {"dim": [{"size": "3"}, {"size": "3"}, {"size": "1"}, {"size": "1"}]}}}, "dtype": {"type": "DT_FLOAT"}}}, {"name": "model_91/tf.nn.convolution_552/convolution/filter", "op": "Const", "attr": {"value": {"tensor": {"dtype": "DT_FLOAT", "tensorShape": {"dim": [{"size": "3"}, {"size": "3"}, {"size": "1"}, {"size": "1"}]}}}, "dtype": {"type": "DT_FLOAT"}}}, {"name": "model_91/tf.nn.convolution_553/convolution/filter", "op": "Const", "attr": {"value": {"tensor": {"dtype": "DT_FLOAT", "tensorShape": {"dim": [{"size": "3"}, {"size": "3"}, {"size": "1"}, {"size": "1"}]}}}, "dtype": {"type": "DT_FLOAT"}}}, {"name": "model_91/tf.nn.convolution_554/convolution/filter", "op": "Const", "attr": {"value": {"tensor": {"dtype": "DT_FLOAT", "tensorShape": {"dim": [{"size": "3"}, {"size": "3"}, {"size": "1"}, {"size": "1"}]}}}, "dtype": {"type": "DT_FLOAT"}}}, {"name": "model_91/tf.nn.convolution_555/convolution/filter", "op": "Const", "attr": {"value": {"tensor": {"dtype": "DT_FLOAT", "tensorShape": {"dim": [{"size": "3"}, {"size": "3"}, {"size": "1"}, {"size": "1"}]}}}, "dtype": {"type": "DT_FLOAT"}}}, {"name": "model_91/tf.nn.convolution_556/convolution/filter", "op": "Const", "attr": {"value": {"tensor": {"dtype": "DT_FLOAT", "tensorShape": {"dim": [{"size": "3"}, {"size": "3"}, {"size": "1"}, {"size": "1"}]}}}, "dtype": {"type": "DT_FLOAT"}}}, {"name": "model_91/tf.nn.convolution_557/convolution/filter", "op": "Const", "attr": {"value": {"tensor": {"dtype": "DT_FLOAT", "tensorShape": {"dim": [{"size": "3"}, {"size": "3"}, {"size": "1"}, {"size": "1"}]}}}, "dtype": {"type": "DT_FLOAT"}}}, {"name": "model_91/tf.nn.convolution_558/convolution/filter", "op": "Const", "attr": {"value": {"tensor": {"dtype": "DT_FLOAT", "tensorShape": {"dim": [{"size": "3"}, {"size": "3"}, {"size": "1"}, {"size": "1"}]}}}, "dtype": {"type": "DT_FLOAT"}}}, {"name": "model_91/tf.nn.convolution_559/convolution/filter", "op": "Const", "attr": {"value": {"tensor": {"dtype": "DT_FLOAT", "tensorShape": {"dim": [{"size": "3"}, {"size": "3"}, {"size": "1"}, {"size": "1"}]}}}, "dtype": {"type": "DT_FLOAT"}}}, {"name": "model_91/tf.nn.convolution_560/convolution/filter", "op": "Const", "attr": {"value": {"tensor": {"dtype": "DT_FLOAT", "tensorShape": {"dim": [{"size": "3"}, {"size": "3"}, {"size": "1"}, {"size": "1"}]}}}, "dtype": {"type": "DT_FLOAT"}}}, {"name": "model_91/tf.nn.convolution_561/convolution/filter", "op": "Const", "attr": {"value": {"tensor": {"dtype": "DT_FLOAT", "tensorShape": {"dim": [{"size": "3"}, {"size": "3"}, {"size": "1"}, {"size": "1"}]}}}, "dtype": {"type": "DT_FLOAT"}}}, {"name": "model_91/tf.nn.convolution_562/convolution/filter", "op": "Const", "attr": {"value": {"tensor": {"dtype": "DT_FLOAT", "tensorShape": {"dim": [{"size": "3"}, {"size": "3"}, {"size": "1"}, {"size": "1"}]}}}, "dtype": {"type": "DT_FLOAT"}}}, {"name": "model_91/tf.nn.convolution_563/convolution/filter", "op": "Const", "attr": {"value": {"tensor": {"dtype": "DT_FLOAT", "tensorShape": {"dim": [{"size": "3"}, {"size": "3"}, {"size": "1"}, {"size": "1"}]}}}, "dtype": {"type": "DT_FLOAT"}}}, {"name": "model_91/tf.nn.convolution_564/convolution/filter", "op": "Const", "attr": {"value": {"tensor": {"dtype": "DT_FLOAT", "tensorShape": {"dim": [{"size": "3"}, {"size": "3"}, {"size": "1"}, {"size": "1"}]}}}, "dtype": {"type": "DT_FLOAT"}}}, {"name": "model_91/tf.nn.convolution_565/convolution/filter", "op": "Const", "attr": {"value": {"tensor": {"dtype": "DT_FLOAT", "tensorShape": {"dim": [{"size": "3"}, {"size": "3"}, {"size": "1"}, {"size": "1"}]}}}, "dtype": {"type": "DT_FLOAT"}}}, {"name": "model_91/tf.nn.convolution_566/convolution/filter", "op": "Const", "attr": {"value": {"tensor": {"dtype": "DT_FLOAT", "tensorShape": {"dim": [{"size": "3"}, {"size": "3"}, {"size": "1"}, {"size": "1"}]}}}, "dtype": {"type": "DT_FLOAT"}}}, {"name": "model_91/tf.nn.convolution_567/convolution/filter", "op": "Const", "attr": {"value": {"tensor": {"dtype": "DT_FLOAT", "tensorShape": {"dim": [{"size": "3"}, {"size": "3"}, {"size": "1"}, {"size": "1"}]}}}, "dtype": {"type": "DT_FLOAT"}}}, {"name": "model_91/tf.nn.convolution_568/convolution/filter", "op": "Const", "attr": {"value": {"tensor": {"dtype": "DT_FLOAT", "tensorShape": {"dim": [{"size": "3"}, {"size": "3"}, {"size": "1"}, {"size": "1"}]}}}, "dtype": {"type": "DT_FLOAT"}}}, {"name": "model_91/tf.nn.convolution_569/convolution/filter", "op": "Const", "attr": {"value": {"tensor": {"dtype": "DT_FLOAT", "tensorShape": {"dim": [{"size": "3"}, {"size": "3"}, {"size": "1"}, {"size": "1"}]}}}, "dtype": {"type": "DT_FLOAT"}}}, {"name": "model_91/tf.nn.convolution_570/convolution/filter", "op": "Const", "attr": {"value": {"tensor": {"dtype": "DT_FLOAT", "tensorShape": {"dim": [{"size": "3"}, {"size": "3"}, {"size": "1"}, {"size": "1"}]}}}, "dtype": {"type": "DT_FLOAT"}}}, {"name": "model_91/tf.nn.convolution_571/convolution/filter", "op": "Const", "attr": {"value": {"tensor": {"dtype": "DT_FLOAT", "tensorShape": {"dim": [{"size": "3"}, {"size": "3"}, {"size": "1"}, {"size": "1"}]}}}, "dtype": {"type": "DT_FLOAT"}}}, {"name": "model_91/tf.nn.convolution_572/convolution/filter", "op": "Const", "attr": {"value": {"tensor": {"dtype": "DT_FLOAT", "tensorShape": {"dim": [{"size": "3"}, {"size": "3"}, {"size": "1"}, {"size": "1"}]}}}, "dtype": {"type": "DT_FLOAT"}}}, {"name": "model_91/tf.nn.convolution_573/convolution/filter", "op": "Const", "attr": {"value": {"tensor": {"dtype": "DT_FLOAT", "tensorShape": {"dim": [{"size": "3"}, {"size": "3"}, {"size": "1"}, {"size": "1"}]}}}, "dtype": {"type": "DT_FLOAT"}}}, {"name": "model_91/tf.nn.convolution_574/convolution/filter", "op": "Const", "attr": {"value": {"tensor": {"dtype": "DT_FLOAT", "tensorShape": {"dim": [{"size": "3"}, {"size": "3"}, {"size": "1"}, {"size": "1"}]}}}, "dtype": {"type": "DT_FLOAT"}}}, {"name": "model_91/tf.nn.convolution_575/convolution/filter", "op": "Const", "attr": {"value": {"tensor": {"dtype": "DT_FLOAT", "tensorShape": {"dim": [{"size": "3"}, {"size": "3"}, {"size": "1"}, {"size": "1"}]}}}, "dtype": {"type": "DT_FLOAT"}}}, {"name": "model_91/tf.nn.convolution_576/convolution/filter", "op": "Const", "attr": {"value": {"tensor": {"dtype": "DT_FLOAT", "tensorShape": {"dim": [{"size": "3"}, {"size": "3"}, {"size": "1"}, {"size": "1"}]}}}, "dtype": {"type": "DT_FLOAT"}}}, {"name": "model_91/tf.nn.convolution_577/convolution/filter", "op": "Const", "attr": {"value": {"tensor": {"dtype": "DT_FLOAT", "tensorShape": {"dim": [{"size": "3"}, {"size": "3"}, {"size": "1"}, {"size": "1"}]}}}, "dtype": {"type": "DT_FLOAT"}}}, {"name": "model_91/tf.nn.convolution_578/convolution/filter", "op": "Const", "attr": {"value": {"tensor": {"dtype": "DT_FLOAT", "tensorShape": {"dim": [{"size": "3"}, {"size": "3"}, {"size": "1"}, {"size": "1"}]}}}, "dtype": {"type": "DT_FLOAT"}}}, {"name": "model_91/tf.nn.convolution_579/convolution/filter", "op": "Const", "attr": {"value": {"tensor": {"dtype": "DT_FLOAT", "tensorShape": {"dim": [{"size": "3"}, {"size": "3"}, {"size": "1"}, {"size": "1"}]}}}, "dtype": {"type": "DT_FLOAT"}}}, {"name": "model_91/tf.nn.convolution_580/convolution/filter", "op": "Const", "attr": {"value": {"tensor": {"dtype": "DT_FLOAT", "tensorShape": {"dim": [{"size": "3"}, {"size": "3"}, {"size": "1"}, {"size": "1"}]}}}, "dtype": {"type": "DT_FLOAT"}}}, {"name": "model_91/tf.nn.convolution_581/convolution/filter", "op": "Const", "attr": {"value": {"tensor": {"dtype": "DT_FLOAT", "tensorShape": {"dim": [{"size": "3"}, {"size": "3"}, {"size": "1"}, {"size": "1"}]}}}, "dtype": {"type": "DT_FLOAT"}}}, {"name": "model_91/tf.nn.convolution_582/convolution/filter", "op": "Const", "attr": {"value": {"tensor": {"dtype": "DT_FLOAT", "tensorShape": {"dim": [{"size": "3"}, {"size": "3"}, {"size": "1"}, {"size": "1"}]}}}, "dtype": {"type": "DT_FLOAT"}}}, {"name": "model_91/tf.nn.convolution_583/convolution/filter", "op": "Const", "attr": {"value": {"tensor": {"dtype": "DT_FLOAT", "tensorShape": {"dim": [{"size": "3"}, {"size": "3"}, {"size": "1"}, {"size": "1"}]}}}, "dtype": {"type": "DT_FLOAT"}}}, {"name": "model_91/tf.nn.convolution_584/convolution/filter", "op": "Const", "attr": {"value": {"tensor": {"dtype": "DT_FLOAT", "tensorShape": {"dim": [{"size": "3"}, {"size": "3"}, {"size": "1"}, {"size": "1"}]}}}, "dtype": {"type": "DT_FLOAT"}}}, {"name": "model_91/tf.split_2/split/split_dim", "op": "Const", "attr": {"value": {"tensor": {"dtype": "DT_INT32", "tensorShape": {}}}, "dtype": {"type": "DT_INT32"}}}, {"name": "model_91/tf.strided_slice_56/ones_like/tensor", "op": "Const", "attr": {"value": {"tensor": {"dtype": "DT_INT64", "tensorShape": {"dim": [{"size": "4"}]}}}, "dtype": {"type": "DT_INT64"}}}, {"name": "model_91/tf.strided_slice_56/StridedSlice/end", "op": "Const", "attr": {"value": {"tensor": {"dtype": "DT_INT64", "tensorShape": {"dim": [{"size": "4"}]}}}, "dtype": {"type": "DT_INT64"}}}, {"name": "model_91/tf.strided_slice_56/ones_like", "op": "Const", "attr": {"value": {"tensor": {"dtype": "DT_INT64", "tensorShape": {"dim": [{"size": "4"}]}}}, "dtype": {"type": "DT_INT64"}}}, {"name": "model_91/tf.nn.convolution_446/convolution/filter", "op": "Const", "attr": {"value": {"tensor": {"dtype": "DT_FLOAT", "tensorShape": {"dim": [{"size": "1"}, {"size": "1"}, {"size": "128"}, {"size": "64"}]}}}, "dtype": {"type": "DT_FLOAT"}}}, {"name": "model_91/tf.math.add_272/Add/y", "op": "Const", "attr": {"value": {"tensor": {"dtype": "DT_FLOAT", "tensorShape": {"dim": [{"size": "64"}]}}}, "dtype": {"type": "DT_FLOAT"}}}, {"name": "model_91/tf.nn.convolution_448/convolution/filter", "op": "Const", "attr": {"value": {"tensor": {"dtype": "DT_FLOAT", "tensorShape": {"dim": [{"size": "3"}, {"size": "3"}, {"size": "64"}, {"size": "64"}]}}}, "dtype": {"type": "DT_FLOAT"}}}, {"name": "model_91/tf.math.add_274/Add/y", "op": "Const", "attr": {"value": {"tensor": {"dtype": "DT_FLOAT", "tensorShape": {"dim": [{"size": "64"}]}}}, "dtype": {"type": "DT_FLOAT"}}}, {"name": "model_91/tf.nn.convolution_449/convolution/filter", "op": "Const", "attr": {"value": {"tensor": {"dtype": "DT_FLOAT", "tensorShape": {"dim": [{"size": "3"}, {"size": "3"}, {"size": "64"}, {"size": "64"}]}}}, "dtype": {"type": "DT_FLOAT"}}}, {"name": "model_91/tf.math.add_275/Add/y", "op": "Const", "attr": {"value": {"tensor": {"dtype": "DT_FLOAT", "tensorShape": {"dim": [{"size": "64"}]}}}, "dtype": {"type": "DT_FLOAT"}}}, {"name": "model_91/tf.nn.convolution_450/convolution/filter", "op": "Const", "attr": {"value": {"tensor": {"dtype": "DT_FLOAT", "tensorShape": {"dim": [{"size": "3"}, {"size": "3"}, {"size": "64"}, {"size": "64"}]}}}, "dtype": {"type": "DT_FLOAT"}}}, {"name": "model_91/tf.math.add_278/Add/y", "op": "Const", "attr": {"value": {"tensor": {"dtype": "DT_FLOAT", "tensorShape": {"dim": [{"size": "64"}]}}}, "dtype": {"type": "DT_FLOAT"}}}, {"name": "model_91/tf.nn.convolution_451/convolution/filter", "op": "Const", "attr": {"value": {"tensor": {"dtype": "DT_FLOAT", "tensorShape": {"dim": [{"size": "3"}, {"size": "3"}, {"size": "64"}, {"size": "64"}]}}}, "dtype": {"type": "DT_FLOAT"}}}, {"name": "model_91/tf.math.add_279/Add/y", "op": "Const", "attr": {"value": {"tensor": {"dtype": "DT_FLOAT", "tensorShape": {"dim": [{"size": "64"}]}}}, "dtype": {"type": "DT_FLOAT"}}}, {"name": "model_91/tf.strided_slice_54/ones_like/tensor", "op": "Const", "attr": {"value": {"tensor": {"dtype": "DT_INT64", "tensorShape": {"dim": [{"size": "4"}]}}}, "dtype": {"type": "DT_INT64"}}}, {"name": "model_91/tf.strided_slice_54/StridedSlice/end", "op": "Const", "attr": {"value": {"tensor": {"dtype": "DT_INT64", "tensorShape": {"dim": [{"size": "4"}]}}}, "dtype": {"type": "DT_INT64"}}}, {"name": "model_91/tf.strided_slice_54/ones_like", "op": "Const", "attr": {"value": {"tensor": {"dtype": "DT_INT64", "tensorShape": {"dim": [{"size": "4"}]}}}, "dtype": {"type": "DT_INT64"}}}, {"name": "model_91/tf.nn.convolution_436/convolution/filter", "op": "Const", "attr": {"value": {"tensor": {"dtype": "DT_FLOAT", "tensorShape": {"dim": [{"size": "1"}, {"size": "1"}, {"size": "64"}, {"size": "32"}]}}}, "dtype": {"type": "DT_FLOAT"}}}, {"name": "model_91/tf.math.add_258/Add/y", "op": "Const", "attr": {"value": {"tensor": {"dtype": "DT_FLOAT", "tensorShape": {"dim": [{"size": "32"}]}}}, "dtype": {"type": "DT_FLOAT"}}}, {"name": "model_91/tf.nn.convolution_438/convolution/filter", "op": "Const", "attr": {"value": {"tensor": {"dtype": "DT_FLOAT", "tensorShape": {"dim": [{"size": "3"}, {"size": "3"}, {"size": "32"}, {"size": "32"}]}}}, "dtype": {"type": "DT_FLOAT"}}}, {"name": "model_91/tf.math.add_260/Add/y", "op": "Const", "attr": {"value": {"tensor": {"dtype": "DT_FLOAT", "tensorShape": {"dim": [{"size": "32"}]}}}, "dtype": {"type": "DT_FLOAT"}}}, {"name": "model_91/tf.nn.convolution_439/convolution/filter", "op": "Const", "attr": {"value": {"tensor": {"dtype": "DT_FLOAT", "tensorShape": {"dim": [{"size": "3"}, {"size": "3"}, {"size": "32"}, {"size": "32"}]}}}, "dtype": {"type": "DT_FLOAT"}}}, {"name": "model_91/tf.math.add_261/Add/y", "op": "Const", "attr": {"value": {"tensor": {"dtype": "DT_FLOAT", "tensorShape": {"dim": [{"size": "32"}]}}}, "dtype": {"type": "DT_FLOAT"}}}, {"name": "model_91/tf.nn.convolution_440/convolution/filter", "op": "Const", "attr": {"value": {"tensor": {"dtype": "DT_FLOAT", "tensorShape": {"dim": [{"size": "3"}, {"size": "3"}, {"size": "32"}, {"size": "32"}]}}}, "dtype": {"type": "DT_FLOAT"}}}, {"name": "model_91/tf.math.add_264/Add/y", "op": "Const", "attr": {"value": {"tensor": {"dtype": "DT_FLOAT", "tensorShape": {"dim": [{"size": "32"}]}}}, "dtype": {"type": "DT_FLOAT"}}}, {"name": "model_91/tf.nn.convolution_441/convolution/filter", "op": "Const", "attr": {"value": {"tensor": {"dtype": "DT_FLOAT", "tensorShape": {"dim": [{"size": "3"}, {"size": "3"}, {"size": "32"}, {"size": "32"}]}}}, "dtype": {"type": "DT_FLOAT"}}}, {"name": "model_91/tf.math.add_265/Add/y", "op": "Const", "attr": {"value": {"tensor": {"dtype": "DT_FLOAT", "tensorShape": {"dim": [{"size": "32"}]}}}, "dtype": {"type": "DT_FLOAT"}}}, {"name": "model_91/tf.strided_slice_52/ones_like/tensor", "op": "Const", "attr": {"value": {"tensor": {"dtype": "DT_INT64", "tensorShape": {"dim": [{"size": "4"}]}}}, "dtype": {"type": "DT_INT64"}}}, {"name": "model_91/tf.strided_slice_52/StridedSlice/end", "op": "Const", "attr": {"value": {"tensor": {"dtype": "DT_INT64", "tensorShape": {"dim": [{"size": "4"}]}}}, "dtype": {"type": "DT_INT64"}}}, {"name": "model_91/tf.strided_slice_52/ones_like", "op": "Const", "attr": {"value": {"tensor": {"dtype": "DT_INT64", "tensorShape": {"dim": [{"size": "4"}]}}}, "dtype": {"type": "DT_INT64"}}}, {"name": "model_91/tf.strided_slice_50/ones_like/tensor", "op": "Const", "attr": {"value": {"tensor": {"dtype": "DT_INT64", "tensorShape": {"dim": [{"size": "4"}]}}}, "dtype": {"type": "DT_INT64"}}}, {"name": "model_91/tf.strided_slice_50/StridedSlice/end", "op": "Const", "attr": {"value": {"tensor": {"dtype": "DT_INT64", "tensorShape": {"dim": [{"size": "4"}]}}}, "dtype": {"type": "DT_INT64"}}}, {"name": "model_91/tf.strided_slice_50/ones_like", "op": "Const", "attr": {"value": {"tensor": {"dtype": "DT_INT64", "tensorShape": {"dim": [{"size": "4"}]}}}, "dtype": {"type": "DT_INT64"}}}, {"name": "model_91/tf.compat.v1.pad_15/Pad/paddings", "op": "Const", "attr": {"value": {"tensor": {"dtype": "DT_INT32", "tensorShape": {"dim": [{"size": "4"}, {"size": "2"}]}}}, "dtype": {"type": "DT_INT32"}}}, {"name": "model_91/tf.nn.convolution_423/convolution/filter", "op": "Const", "attr": {"value": {"tensor": {"dtype": "DT_FLOAT", "tensorShape": {"dim": [{"size": "3"}, {"size": "3"}, {"size": "3"}, {"size": "16"}]}}}, "dtype": {"type": "DT_FLOAT"}}}, {"name": "model_91/tf.math.add_241/Add/y", "op": "Const", "attr": {"value": {"tensor": {"dtype": "DT_FLOAT", "tensorShape": {"dim": [{"size": "16"}]}}}, "dtype": {"type": "DT_FLOAT"}}}, {"name": "model_91/tf.compat.v1.pad_16/Pad/paddings", "op": "Const", "attr": {"value": {"tensor": {"dtype": "DT_INT32", "tensorShape": {"dim": [{"size": "4"}, {"size": "2"}]}}}, "dtype": {"type": "DT_INT32"}}}, {"name": "model_91/tf.nn.convolution_424/convolution/filter", "op": "Const", "attr": {"value": {"tensor": {"dtype": "DT_FLOAT", "tensorShape": {"dim": [{"size": "3"}, {"size": "3"}, {"size": "16"}, {"size": "32"}]}}}, "dtype": {"type": "DT_FLOAT"}}}, {"name": "model_91/tf.math.add_242/Add/y", "op": "Const", "attr": {"value": {"tensor": {"dtype": "DT_FLOAT", "tensorShape": {"dim": [{"size": "32"}]}}}, "dtype": {"type": "DT_FLOAT"}}}, {"name": "model_91/tf.nn.convolution_425/convolution/filter", "op": "Const", "attr": {"value": {"tensor": {"dtype": "DT_FLOAT", "tensorShape": {"dim": [{"size": "1"}, {"size": "1"}, {"size": "32"}, {"size": "32"}]}}}, "dtype": {"type": "DT_FLOAT"}}}, {"name": "model_91/tf.math.add_243/Add/y", "op": "Const", "attr": {"value": {"tensor": {"dtype": "DT_FLOAT", "tensorShape": {"dim": [{"size": "32"}]}}}, "dtype": {"type": "DT_FLOAT"}}}, {"name": "model_91/tf.strided_slice_51/ones_like/tensor", "op": "Const", "attr": {"value": {"tensor": {"dtype": "DT_INT64", "tensorShape": {"dim": [{"size": "4"}]}}}, "dtype": {"type": "DT_INT64"}}}, {"name": "model_91/tf.strided_slice_51/StridedSlice/end", "op": "Const", "attr": {"value": {"tensor": {"dtype": "DT_INT64", "tensorShape": {"dim": [{"size": "4"}]}}}, "dtype": {"type": "DT_INT64"}}}, {"name": "model_91/tf.strided_slice_51/ones_like", "op": "Const", "attr": {"value": {"tensor": {"dtype": "DT_INT64", "tensorShape": {"dim": [{"size": "4"}]}}}, "dtype": {"type": "DT_INT64"}}}, {"name": "model_91/tf.nn.convolution_426/convolution/filter", "op": "Const", "attr": {"value": {"tensor": {"dtype": "DT_FLOAT", "tensorShape": {"dim": [{"size": "3"}, {"size": "3"}, {"size": "16"}, {"size": "8"}]}}}, "dtype": {"type": "DT_FLOAT"}}}, {"name": "model_91/tf.math.add_244/Add/y", "op": "Const", "attr": {"value": {"tensor": {"dtype": "DT_FLOAT", "tensorShape": {"dim": [{"size": "8"}]}}}, "dtype": {"type": "DT_FLOAT"}}}, {"name": "model_91/tf.nn.convolution_427/convolution/filter", "op": "Const", "attr": {"value": {"tensor": {"dtype": "DT_FLOAT", "tensorShape": {"dim": [{"size": "3"}, {"size": "3"}, {"size": "8"}, {"size": "16"}]}}}, "dtype": {"type": "DT_FLOAT"}}}, {"name": "model_91/tf.math.add_245/Add/y", "op": "Const", "attr": {"value": {"tensor": {"dtype": "DT_FLOAT", "tensorShape": {"dim": [{"size": "16"}]}}}, "dtype": {"type": "DT_FLOAT"}}}, {"name": "model_91/tf.concat_56/concat/axis", "op": "Const", "attr": {"value": {"tensor": {"dtype": "DT_INT32", "tensorShape": {}}}, "dtype": {"type": "DT_INT32"}}}, {"name": "model_91/tf.nn.convolution_428/convolution/filter", "op": "Const", "attr": {"value": {"tensor": {"dtype": "DT_FLOAT", "tensorShape": {"dim": [{"size": "1"}, {"size": "1"}, {"size": "48"}, {"size": "64"}]}}}, "dtype": {"type": "DT_FLOAT"}}}, {"name": "model_91/tf.math.add_248/Add/y", "op": "Const", "attr": {"value": {"tensor": {"dtype": "DT_FLOAT", "tensorShape": {"dim": [{"size": "64"}]}}}, "dtype": {"type": "DT_FLOAT"}}}, {"name": "model_91/tf.compat.v1.pad_17/Pad/paddings", "op": "Const", "attr": {"value": {"tensor": {"dtype": "DT_INT32", "tensorShape": {"dim": [{"size": "4"}, {"size": "2"}]}}}, "dtype": {"type": "DT_INT32"}}}, {"name": "model_91/tf.nn.convolution_429/convolution/filter", "op": "Const", "attr": {"value": {"tensor": {"dtype": "DT_FLOAT", "tensorShape": {"dim": [{"size": "3"}, {"size": "3"}, {"size": "64"}, {"size": "64"}]}}}, "dtype": {"type": "DT_FLOAT"}}}, {"name": "model_91/tf.math.add_249/Add/y", "op": "Const", "attr": {"value": {"tensor": {"dtype": "DT_FLOAT", "tensorShape": {"dim": [{"size": "64"}]}}}, "dtype": {"type": "DT_FLOAT"}}}, {"name": "model_91/tf.nn.convolution_430/convolution/filter", "op": "Const", "attr": {"value": {"tensor": {"dtype": "DT_FLOAT", "tensorShape": {"dim": [{"size": "1"}, {"size": "1"}, {"size": "64"}, {"size": "64"}]}}}, "dtype": {"type": "DT_FLOAT"}}}, {"name": "model_91/tf.math.add_250/Add/y", "op": "Const", "attr": {"value": {"tensor": {"dtype": "DT_FLOAT", "tensorShape": {"dim": [{"size": "64"}]}}}, "dtype": {"type": "DT_FLOAT"}}}, {"name": "model_91/tf.strided_slice_53/ones_like/tensor", "op": "Const", "attr": {"value": {"tensor": {"dtype": "DT_INT64", "tensorShape": {"dim": [{"size": "4"}]}}}, "dtype": {"type": "DT_INT64"}}}, {"name": "model_91/tf.strided_slice_53/StridedSlice/end", "op": "Const", "attr": {"value": {"tensor": {"dtype": "DT_INT64", "tensorShape": {"dim": [{"size": "4"}]}}}, "dtype": {"type": "DT_INT64"}}}, {"name": "model_91/tf.strided_slice_53/ones_like", "op": "Const", "attr": {"value": {"tensor": {"dtype": "DT_INT64", "tensorShape": {"dim": [{"size": "4"}]}}}, "dtype": {"type": "DT_INT64"}}}, {"name": "model_91/tf.nn.convolution_431/convolution/filter", "op": "Const", "attr": {"value": {"tensor": {"dtype": "DT_FLOAT", "tensorShape": {"dim": [{"size": "3"}, {"size": "3"}, {"size": "32"}, {"size": "16"}]}}}, "dtype": {"type": "DT_FLOAT"}}}, {"name": "model_91/tf.math.add_251/Add/y", "op": "Const", "attr": {"value": {"tensor": {"dtype": "DT_FLOAT", "tensorShape": {"dim": [{"size": "16"}]}}}, "dtype": {"type": "DT_FLOAT"}}}, {"name": "model_91/tf.nn.convolution_432/convolution/filter", "op": "Const", "attr": {"value": {"tensor": {"dtype": "DT_FLOAT", "tensorShape": {"dim": [{"size": "3"}, {"size": "3"}, {"size": "16"}, {"size": "32"}]}}}, "dtype": {"type": "DT_FLOAT"}}}, {"name": "model_91/tf.math.add_252/Add/y", "op": "Const", "attr": {"value": {"tensor": {"dtype": "DT_FLOAT", "tensorShape": {"dim": [{"size": "32"}]}}}, "dtype": {"type": "DT_FLOAT"}}}, {"name": "model_91/tf.concat_57/concat/axis", "op": "Const", "attr": {"value": {"tensor": {"dtype": "DT_INT32", "tensorShape": {}}}, "dtype": {"type": "DT_INT32"}}}, {"name": "model_91/tf.nn.convolution_433/convolution/filter", "op": "Const", "attr": {"value": {"tensor": {"dtype": "DT_FLOAT", "tensorShape": {"dim": [{"size": "1"}, {"size": "1"}, {"size": "96"}, {"size": "128"}]}}}, "dtype": {"type": "DT_FLOAT"}}}, {"name": "model_91/tf.math.add_255/Add/y", "op": "Const", "attr": {"value": {"tensor": {"dtype": "DT_FLOAT", "tensorShape": {"dim": [{"size": "128"}]}}}, "dtype": {"type": "DT_FLOAT"}}}, {"name": "model_91/tf.compat.v1.pad_18/Pad/paddings", "op": "Const", "attr": {"value": {"tensor": {"dtype": "DT_INT32", "tensorShape": {"dim": [{"size": "4"}, {"size": "2"}]}}}, "dtype": {"type": "DT_INT32"}}}, {"name": "model_91/tf.nn.convolution_434/convolution/filter", "op": "Const", "attr": {"value": {"tensor": {"dtype": "DT_FLOAT", "tensorShape": {"dim": [{"size": "3"}, {"size": "3"}, {"size": "128"}, {"size": "128"}]}}}, "dtype": {"type": "DT_FLOAT"}}}, {"name": "model_91/tf.math.add_256/Add/y", "op": "Const", "attr": {"value": {"tensor": {"dtype": "DT_FLOAT", "tensorShape": {"dim": [{"size": "128"}]}}}, "dtype": {"type": "DT_FLOAT"}}}, {"name": "model_91/tf.nn.convolution_435/convolution/filter", "op": "Const", "attr": {"value": {"tensor": {"dtype": "DT_FLOAT", "tensorShape": {"dim": [{"size": "1"}, {"size": "1"}, {"size": "128"}, {"size": "128"}]}}}, "dtype": {"type": "DT_FLOAT"}}}, {"name": "model_91/tf.math.add_257/Add/y", "op": "Const", "attr": {"value": {"tensor": {"dtype": "DT_FLOAT", "tensorShape": {"dim": [{"size": "128"}]}}}, "dtype": {"type": "DT_FLOAT"}}}, {"name": "model_91/tf.strided_slice_55/ones_like/tensor", "op": "Const", "attr": {"value": {"tensor": {"dtype": "DT_INT64", "tensorShape": {"dim": [{"size": "4"}]}}}, "dtype": {"type": "DT_INT64"}}}, {"name": "model_91/tf.strided_slice_55/StridedSlice/end", "op": "Const", "attr": {"value": {"tensor": {"dtype": "DT_INT64", "tensorShape": {"dim": [{"size": "4"}]}}}, "dtype": {"type": "DT_INT64"}}}, {"name": "model_91/tf.strided_slice_55/ones_like", "op": "Const", "attr": {"value": {"tensor": {"dtype": "DT_INT64", "tensorShape": {"dim": [{"size": "4"}]}}}, "dtype": {"type": "DT_INT64"}}}, {"name": "model_91/tf.nn.convolution_437/convolution/filter", "op": "Const", "attr": {"value": {"tensor": {"dtype": "DT_FLOAT", "tensorShape": {"dim": [{"size": "1"}, {"size": "1"}, {"size": "64"}, {"size": "32"}]}}}, "dtype": {"type": "DT_FLOAT"}}}, {"name": "model_91/tf.math.add_259/Add/y", "op": "Const", "attr": {"value": {"tensor": {"dtype": "DT_FLOAT", "tensorShape": {"dim": [{"size": "32"}]}}}, "dtype": {"type": "DT_FLOAT"}}}, {"name": "model_91/tf.concat_58/concat/axis", "op": "Const", "attr": {"value": {"tensor": {"dtype": "DT_INT32", "tensorShape": {}}}, "dtype": {"type": "DT_INT32"}}}, {"name": "model_91/tf.nn.convolution_442/convolution/filter", "op": "Const", "attr": {"value": {"tensor": {"dtype": "DT_FLOAT", "tensorShape": {"dim": [{"size": "1"}, {"size": "1"}, {"size": "64"}, {"size": "64"}]}}}, "dtype": {"type": "DT_FLOAT"}}}, {"name": "model_91/tf.math.add_268/Add/y", "op": "Const", "attr": {"value": {"tensor": {"dtype": "DT_FLOAT", "tensorShape": {"dim": [{"size": "64"}]}}}, "dtype": {"type": "DT_FLOAT"}}}, {"name": "model_91/tf.concat_59/concat/axis", "op": "Const", "attr": {"value": {"tensor": {"dtype": "DT_INT32", "tensorShape": {}}}, "dtype": {"type": "DT_INT32"}}}, {"name": "model_91/tf.nn.convolution_443/convolution/filter", "op": "Const", "attr": {"value": {"tensor": {"dtype": "DT_FLOAT", "tensorShape": {"dim": [{"size": "1"}, {"size": "1"}, {"size": "192"}, {"size": "128"}]}}}, "dtype": {"type": "DT_FLOAT"}}}, {"name": "model_91/tf.math.add_269/Add/y", "op": "Const", "attr": {"value": {"tensor": {"dtype": "DT_FLOAT", "tensorShape": {"dim": [{"size": "128"}]}}}, "dtype": {"type": "DT_FLOAT"}}}, {"name": "model_91/tf.compat.v1.pad_19/Pad/paddings", "op": "Const", "attr": {"value": {"tensor": {"dtype": "DT_INT32", "tensorShape": {"dim": [{"size": "4"}, {"size": "2"}]}}}, "dtype": {"type": "DT_INT32"}}}, {"name": "model_91/tf.nn.convolution_444/convolution/filter", "op": "Const", "attr": {"value": {"tensor": {"dtype": "DT_FLOAT", "tensorShape": {"dim": [{"size": "3"}, {"size": "3"}, {"size": "128"}, {"size": "256"}]}}}, "dtype": {"type": "DT_FLOAT"}}}, {"name": "model_91/tf.math.add_270/Add/y", "op": "Const", "attr": {"value": {"tensor": {"dtype": "DT_FLOAT", "tensorShape": {"dim": [{"size": "256"}]}}}, "dtype": {"type": "DT_FLOAT"}}}, {"name": "model_91/tf.nn.convolution_445/convolution/filter", "op": "Const", "attr": {"value": {"tensor": {"dtype": "DT_FLOAT", "tensorShape": {"dim": [{"size": "1"}, {"size": "1"}, {"size": "256"}, {"size": "256"}]}}}, "dtype": {"type": "DT_FLOAT"}}}, {"name": "model_91/tf.math.add_271/Add/y", "op": "Const", "attr": {"value": {"tensor": {"dtype": "DT_FLOAT", "tensorShape": {"dim": [{"size": "256"}]}}}, "dtype": {"type": "DT_FLOAT"}}}, {"name": "model_91/tf.strided_slice_57/ones_like/tensor", "op": "Const", "attr": {"value": {"tensor": {"dtype": "DT_INT64", "tensorShape": {"dim": [{"size": "4"}]}}}, "dtype": {"type": "DT_INT64"}}}, {"name": "model_91/tf.strided_slice_57/StridedSlice/end", "op": "Const", "attr": {"value": {"tensor": {"dtype": "DT_INT64", "tensorShape": {"dim": [{"size": "4"}]}}}, "dtype": {"type": "DT_INT64"}}}, {"name": "model_91/tf.strided_slice_57/ones_like", "op": "Const", "attr": {"value": {"tensor": {"dtype": "DT_INT64", "tensorShape": {"dim": [{"size": "4"}]}}}, "dtype": {"type": "DT_INT64"}}}, {"name": "model_91/tf.nn.convolution_447/convolution/filter", "op": "Const", "attr": {"value": {"tensor": {"dtype": "DT_FLOAT", "tensorShape": {"dim": [{"size": "1"}, {"size": "1"}, {"size": "128"}, {"size": "64"}]}}}, "dtype": {"type": "DT_FLOAT"}}}, {"name": "model_91/tf.math.add_273/Add/y", "op": "Const", "attr": {"value": {"tensor": {"dtype": "DT_FLOAT", "tensorShape": {"dim": [{"size": "64"}]}}}, "dtype": {"type": "DT_FLOAT"}}}, {"name": "model_91/tf.concat_60/concat/axis", "op": "Const", "attr": {"value": {"tensor": {"dtype": "DT_INT32", "tensorShape": {}}}, "dtype": {"type": "DT_INT32"}}}, {"name": "model_91/tf.nn.convolution_452/convolution/filter", "op": "Const", "attr": {"value": {"tensor": {"dtype": "DT_FLOAT", "tensorShape": {"dim": [{"size": "1"}, {"size": "1"}, {"size": "128"}, {"size": "128"}]}}}, "dtype": {"type": "DT_FLOAT"}}}, {"name": "model_91/tf.math.add_282/Add/y", "op": "Const", "attr": {"value": {"tensor": {"dtype": "DT_FLOAT", "tensorShape": {"dim": [{"size": "128"}]}}}, "dtype": {"type": "DT_FLOAT"}}}, {"name": "model_91/tf.concat_61/concat/axis", "op": "Const", "attr": {"value": {"tensor": {"dtype": "DT_INT32", "tensorShape": {}}}, "dtype": {"type": "DT_INT32"}}}, {"name": "model_91/tf.nn.convolution_453/convolution/filter", "op": "Const", "attr": {"value": {"tensor": {"dtype": "DT_FLOAT", "tensorShape": {"dim": [{"size": "1"}, {"size": "1"}, {"size": "384"}, {"size": "256"}]}}}, "dtype": {"type": "DT_FLOAT"}}}, {"name": "model_91/tf.math.add_283/Add/y", "op": "Const", "attr": {"value": {"tensor": {"dtype": "DT_FLOAT", "tensorShape": {"dim": [{"size": "256"}]}}}, "dtype": {"type": "DT_FLOAT"}}}, {"name": "model_91/tf.nn.convolution_454/convolution/filter", "op": "Const", "attr": {"value": {"tensor": {"dtype": "DT_FLOAT", "tensorShape": {"dim": [{"size": "1"}, {"size": "1"}, {"size": "256"}, {"size": "128"}]}}}, "dtype": {"type": "DT_FLOAT"}}}, {"name": "model_91/tf.math.add_284/Add/y", "op": "Const", "attr": {"value": {"tensor": {"dtype": "DT_FLOAT", "tensorShape": {"dim": [{"size": "128"}]}}}, "dtype": {"type": "DT_FLOAT"}}}, {"name": "model_91/tf.concat_62/concat/axis", "op": "Const", "attr": {"value": {"tensor": {"dtype": "DT_INT32", "tensorShape": {}}}, "dtype": {"type": "DT_INT32"}}}, {"name": "model_91/tf.nn.convolution_455/convolution/filter", "op": "Const", "attr": {"value": {"tensor": {"dtype": "DT_FLOAT", "tensorShape": {"dim": [{"size": "1"}, {"size": "1"}, {"size": "512"}, {"size": "256"}]}}}, "dtype": {"type": "DT_FLOAT"}}}, {"name": "model_91/tf.math.add_285/Add/y", "op": "Const", "attr": {"value": {"tensor": {"dtype": "DT_FLOAT", "tensorShape": {"dim": [{"size": "256"}]}}}, "dtype": {"type": "DT_FLOAT"}}}, {"name": "model_91/tf.nn.convolution_456/convolution/filter", "op": "Const", "attr": {"value": {"tensor": {"dtype": "DT_FLOAT", "tensorShape": {"dim": [{"size": "1"}, {"size": "1"}, {"size": "256"}, {"size": "256"}]}}}, "dtype": {"type": "DT_FLOAT"}}}, {"name": "model_91/tf.math.add_286/Add/y", "op": "Const", "attr": {"value": {"tensor": {"dtype": "DT_FLOAT", "tensorShape": {"dim": [{"size": "256"}]}}}, "dtype": {"type": "DT_FLOAT"}}}, {"name": "model_91/tf.strided_slice_59/StridedSlice/begin", "op": "Const", "attr": {"value": {"tensor": {"dtype": "DT_INT32", "tensorShape": {"dim": [{"size": "4"}]}}}, "dtype": {"type": "DT_INT32"}}}, {"name": "model_91/tf.strided_slice_59/StridedSlice/end", "op": "Const", "attr": {"value": {"tensor": {"dtype": "DT_INT32", "tensorShape": {"dim": [{"size": "4"}]}}}, "dtype": {"type": "DT_INT32"}}}, {"name": "model_91/tf.strided_slice_59/ones_like", "op": "Const", "attr": {"value": {"tensor": {"dtype": "DT_INT32", "tensorShape": {"dim": [{"size": "4"}]}}}, "dtype": {"type": "DT_INT32"}}}, {"name": "model_91/tf.nn.convolution_457/convolution/filter", "op": "Const", "attr": {"value": {"tensor": {"dtype": "DT_FLOAT", "tensorShape": {"dim": [{"size": "1"}, {"size": "1"}, {"size": "128"}, {"size": "256"}]}}}, "dtype": {"type": "DT_FLOAT"}}}, {"name": "model_91/tf.math.add_287/Add/y", "op": "Const", "attr": {"value": {"tensor": {"dtype": "DT_FLOAT", "tensorShape": {"dim": [{"size": "256"}]}}}, "dtype": {"type": "DT_FLOAT"}}}, {"name": "model_91/tf.compat.v1.transpose_325/transpose/perm", "op": "Const", "attr": {"value": {"tensor": {"dtype": "DT_INT32", "tensorShape": {"dim": [{"size": "4"}]}}}, "dtype": {"type": "DT_INT32"}}}, {"name": "model_91/tf.reshape_50/Reshape/shape", "op": "Const", "attr": {"value": {"tensor": {"dtype": "DT_INT32", "tensorShape": {"dim": [{"size": "4"}]}}}, "dtype": {"type": "DT_INT32"}}}, {"name": "model_91/tf.strided_slice_62/StridedSlice/begin", "op": "Const", "attr": {"value": {"tensor": {"dtype": "DT_INT32", "tensorShape": {"dim": [{"size": "4"}]}}}, "dtype": {"type": "DT_INT32"}}}, {"name": "model_91/tf.strided_slice_62/StridedSlice/end", "op": "Const", "attr": {"value": {"tensor": {"dtype": "DT_INT32", "tensorShape": {"dim": [{"size": "4"}]}}}, "dtype": {"type": "DT_INT32"}}}, {"name": "model_91/tf.strided_slice_62/ones_like", "op": "Const", "attr": {"value": {"tensor": {"dtype": "DT_INT32", "tensorShape": {"dim": [{"size": "4"}]}}}, "dtype": {"type": "DT_INT32"}}}, {"name": "model_91/tf.reshape_53/Reshape/shape", "op": "Const", "attr": {"value": {"tensor": {"dtype": "DT_INT32", "tensorShape": {"dim": [{"size": "4"}]}}}, "dtype": {"type": "DT_INT32"}}}, {"name": "model_91/tf.compat.v1.transpose_333/transpose/perm", "op": "Const", "attr": {"value": {"tensor": {"dtype": "DT_INT32", "tensorShape": {"dim": [{"size": "4"}]}}}, "dtype": {"type": "DT_INT32"}}}, {"name": "model_91/tf.nn.convolution_585/convolution/filter", "op": "Const", "attr": {"value": {"tensor": {"dtype": "DT_FLOAT", "tensorShape": {"dim": [{"size": "3"}, {"size": "3"}, {"size": "1"}, {"size": "1"}]}}}, "dtype": {"type": "DT_FLOAT"}}}, {"name": "model_91/tf.concat_63/concat/axis", "op": "Const", "attr": {"value": {"tensor": {"dtype": "DT_INT32", "tensorShape": {}}}, "dtype": {"type": "DT_INT32"}}}, {"name": "model_91/tf.nn.convolution_586/convolution/filter", "op": "Const", "attr": {"value": {"tensor": {"dtype": "DT_FLOAT", "tensorShape": {"dim": [{"size": "1"}, {"size": "1"}, {"size": "128"}, {"size": "128"}]}}}, "dtype": {"type": "DT_FLOAT"}}}, {"name": "model_91/tf.math.add_291/Add/y", "op": "Const", "attr": {"value": {"tensor": {"dtype": "DT_FLOAT", "tensorShape": {"dim": [{"size": "128"}]}}}, "dtype": {"type": "DT_FLOAT"}}}, {"name": "model_91/tf.nn.convolution_587/convolution/filter", "op": "Const", "attr": {"value": {"tensor": {"dtype": "DT_FLOAT", "tensorShape": {"dim": [{"size": "1"}, {"size": "1"}, {"size": "128"}, {"size": "256"}]}}}, "dtype": {"type": "DT_FLOAT"}}}, {"name": "model_91/tf.math.add_294/Add/y", "op": "Const", "attr": {"value": {"tensor": {"dtype": "DT_FLOAT", "tensorShape": {"dim": [{"size": "256"}]}}}, "dtype": {"type": "DT_FLOAT"}}}, {"name": "model_91/tf.nn.convolution_588/convolution/filter", "op": "Const", "attr": {"value": {"tensor": {"dtype": "DT_FLOAT", "tensorShape": {"dim": [{"size": "1"}, {"size": "1"}, {"size": "256"}, {"size": "128"}]}}}, "dtype": {"type": "DT_FLOAT"}}}, {"name": "model_91/tf.concat_64/concat/axis", "op": "Const", "attr": {"value": {"tensor": {"dtype": "DT_INT32", "tensorShape": {}}}, "dtype": {"type": "DT_INT32"}}}, {"name": "model_91/tf.nn.convolution_589/convolution/filter", "op": "Const", "attr": {"value": {"tensor": {"dtype": "DT_FLOAT", "tensorShape": {"dim": [{"size": "1"}, {"size": "1"}, {"size": "256"}, {"size": "256"}]}}}, "dtype": {"type": "DT_FLOAT"}}}, {"name": "model_91/tf.math.add_298/Add/y", "op": "Const", "attr": {"value": {"tensor": {"dtype": "DT_FLOAT", "tensorShape": {"dim": [{"size": "256"}]}}}, "dtype": {"type": "DT_FLOAT"}}}, {"name": "model_91/tf.concat_72/concat/axis", "op": "Const", "attr": {"value": {"tensor": {"dtype": "DT_INT32", "tensorShape": {}}}, "dtype": {"type": "DT_INT32"}}}, {"name": "model_91/tf.nn.convolution_613/convolution/filter", "op": "Const", "attr": {"value": {"tensor": {"dtype": "DT_FLOAT", "tensorShape": {"dim": [{"size": "1"}, {"size": "1"}, {"size": "384"}, {"size": "256"}]}}}, "dtype": {"type": "DT_FLOAT"}}}, {"name": "model_91/tf.math.add_331/Add/y", "op": "Const", "attr": {"value": {"tensor": {"dtype": "DT_FLOAT", "tensorShape": {"dim": [{"size": "256"}]}}}, "dtype": {"type": "DT_FLOAT"}}}, {"name": "model_91/tf.strided_slice_70/ones_like/tensor", "op": "Const", "attr": {"value": {"tensor": {"dtype": "DT_INT64", "tensorShape": {"dim": [{"size": "4"}]}}}, "dtype": {"type": "DT_INT64"}}}, {"name": "model_91/tf.strided_slice_70/StridedSlice/end", "op": "Const", "attr": {"value": {"tensor": {"dtype": "DT_INT64", "tensorShape": {"dim": [{"size": "4"}]}}}, "dtype": {"type": "DT_INT64"}}}, {"name": "model_91/tf.strided_slice_70/ones_like", "op": "Const", "attr": {"value": {"tensor": {"dtype": "DT_INT64", "tensorShape": {"dim": [{"size": "4"}]}}}, "dtype": {"type": "DT_INT64"}}}, {"name": "model_91/tf.nn.convolution_616/convolution/filter", "op": "Const", "attr": {"value": {"tensor": {"dtype": "DT_FLOAT", "tensorShape": {"dim": [{"size": "1"}, {"size": "1"}, {"size": "128"}, {"size": "64"}]}}}, "dtype": {"type": "DT_FLOAT"}}}, {"name": "model_91/tf.math.add_335/Add/y", "op": "Const", "attr": {"value": {"tensor": {"dtype": "DT_FLOAT", "tensorShape": {"dim": [{"size": "64"}]}}}, "dtype": {"type": "DT_FLOAT"}}}, {"name": "model_91/tf.concat_74/concat/axis", "op": "Const", "attr": {"value": {"tensor": {"dtype": "DT_INT32", "tensorShape": {}}}, "dtype": {"type": "DT_INT32"}}}, {"name": "model_91/tf.nn.convolution_623/convolution/filter", "op": "Const", "attr": {"value": {"tensor": {"dtype": "DT_FLOAT", "tensorShape": {"dim": [{"size": "1"}, {"size": "1"}, {"size": "128"}, {"size": "128"}]}}}, "dtype": {"type": "DT_FLOAT"}}}, {"name": "model_91/tf.math.add_346/Add/y", "op": "Const", "attr": {"value": {"tensor": {"dtype": "DT_FLOAT", "tensorShape": {"dim": [{"size": "128"}]}}}, "dtype": {"type": "DT_FLOAT"}}}, {"name": "model_91/tf.concat_75/concat/axis", "op": "Const", "attr": {"value": {"tensor": {"dtype": "DT_INT32", "tensorShape": {}}}, "dtype": {"type": "DT_INT32"}}}, {"name": "model_91/tf.nn.convolution_624/convolution/filter", "op": "Const", "attr": {"value": {"tensor": {"dtype": "DT_FLOAT", "tensorShape": {"dim": [{"size": "1"}, {"size": "1"}, {"size": "384"}, {"size": "256"}]}}}, "dtype": {"type": "DT_FLOAT"}}}, {"name": "model_91/tf.math.add_347/Add/y", "op": "Const", "attr": {"value": {"tensor": {"dtype": "DT_FLOAT", "tensorShape": {"dim": [{"size": "256"}]}}}, "dtype": {"type": "DT_FLOAT"}}}, {"name": "model_91/tf.compat.v1.nn.depthwise_conv2d_18/depthwise/filter_in", "op": "Const", "attr": {"value": {"tensor": {"dtype": "DT_FLOAT", "tensorShape": {"dim": [{"size": "3"}, {"size": "3"}, {"size": "256"}, {"size": "1"}]}}}, "dtype": {"type": "DT_FLOAT"}}}, {"name": "model_91/tf.math.add_349/Add/y", "op": "Const", "attr": {"value": {"tensor": {"dtype": "DT_FLOAT", "tensorShape": {"dim": [{"size": "256"}]}}}, "dtype": {"type": "DT_FLOAT"}}}, {"name": "model_91/tf.nn.convolution_627/convolution/filter", "op": "Const", "attr": {"value": {"tensor": {"dtype": "DT_FLOAT", "tensorShape": {"dim": [{"size": "1"}, {"size": "1"}, {"size": "256"}, {"size": "64"}]}}}, "dtype": {"type": "DT_FLOAT"}}}, {"name": "model_91/tf.math.add_351/Add/y", "op": "Const", "attr": {"value": {"tensor": {"dtype": "DT_FLOAT", "tensorShape": {"dim": [{"size": "64"}]}}}, "dtype": {"type": "DT_FLOAT"}}}, {"name": "model_91/tf.compat.v1.nn.depthwise_conv2d_19/depthwise/filter_in", "op": "Const", "attr": {"value": {"tensor": {"dtype": "DT_FLOAT", "tensorShape": {"dim": [{"size": "3"}, {"size": "3"}, {"size": "64"}, {"size": "1"}]}}}, "dtype": {"type": "DT_FLOAT"}}}, {"name": "model_91/tf.math.add_353/Add/y", "op": "Const", "attr": {"value": {"tensor": {"dtype": "DT_FLOAT", "tensorShape": {"dim": [{"size": "64"}]}}}, "dtype": {"type": "DT_FLOAT"}}}, {"name": "model_91/tf.nn.convolution_629/convolution/filter", "op": "Const", "attr": {"value": {"tensor": {"dtype": "DT_FLOAT", "tensorShape": {"dim": [{"size": "1"}, {"size": "1"}, {"size": "64"}, {"size": "64"}]}}}, "dtype": {"type": "DT_FLOAT"}}}, {"name": "model_91/tf.math.add_354/Add/y", "op": "Const", "attr": {"value": {"tensor": {"dtype": "DT_FLOAT", "tensorShape": {"dim": [{"size": "64"}]}}}, "dtype": {"type": "DT_FLOAT"}}}, {"name": "model_91/tf.nn.convolution_630/convolution/filter", "op": "Const", "attr": {"value": {"tensor": {"dtype": "DT_FLOAT", "tensorShape": {"dim": [{"size": "1"}, {"size": "1"}, {"size": "64"}, {"size": "8"}]}}}, "dtype": {"type": "DT_FLOAT"}}}, {"name": "model_91/tf.math.add_355/Add/y", "op": "Const", "attr": {"value": {"tensor": {"dtype": "DT_FLOAT", "tensorShape": {"dim": [{"size": "8"}]}}}, "dtype": {"type": "DT_FLOAT"}}}, {"name": "model_91/tf.concat_76/concat/axis", "op": "Const", "attr": {"value": {"tensor": {"dtype": "DT_INT32", "tensorShape": {}}}, "dtype": {"type": "DT_INT32"}}}, {"name": "model_91/tf.compat.v1.transpose_404/transpose/perm", "op": "Const", "attr": {"value": {"tensor": {"dtype": "DT_INT32", "tensorShape": {"dim": [{"size": "4"}]}}}, "dtype": {"type": "DT_INT32"}}}, {"name": "model_91/tf.reshape_65/Reshape/shape", "op": "Const", "attr": {"value": {"tensor": {"dtype": "DT_INT32", "tensorShape": {"dim": [{"size": "3"}]}}}, "dtype": {"type": "DT_INT32"}}}, {"name": "model_91/tf.concat_77/concat/axis", "op": "Const", "attr": {"value": {"tensor": {"dtype": "DT_INT32", "tensorShape": {}}}, "dtype": {"type": "DT_INT32"}}}, {"name": "model_91/tf.strided_slice_72/StridedSlice/begin", "op": "Const", "attr": {"value": {"tensor": {"dtype": "DT_INT64", "tensorShape": {"dim": [{"size": "3"}]}}}, "dtype": {"type": "DT_INT64"}}}, {"name": "model_91/tf.strided_slice_72/StridedSlice/end", "op": "Const", "attr": {"value": {"tensor": {"dtype": "DT_INT64", "tensorShape": {"dim": [{"size": "3"}]}}}, "dtype": {"type": "DT_INT64"}}}, {"name": "model_91/tf.strided_slice_72/StridedSlice/strides", "op": "Const", "attr": {"value": {"tensor": {"dtype": "DT_INT64", "tensorShape": {"dim": [{"size": "3"}]}}}, "dtype": {"type": "DT_INT64"}}}, {"name": "model_91/output0/concat/axis", "op": "Const", "attr": {"value": {"tensor": {"dtype": "DT_INT32", "tensorShape": {}}}, "dtype": {"type": "DT_INT32"}}}, {"name": "x", "op": "Placeholder", "attr": {"shape": {"shape": {"dim": [{"size": "1"}, {"size": "320"}, {"size": "320"}, {"size": "3"}]}}, "dtype": {"type": "DT_FLOAT"}}}, {"name": "model_91/tf.compat.v1.pad_15/Pad", "op": "Pad", "input": ["x", "model_91/tf.compat.v1.pad_15/Pad/paddings"], "attr": {"Tpaddings": {"type": "DT_INT32"}, "T": {"type": "DT_FLOAT"}}}, {"name": "model_91/tf.math.add_241/Add", "op": "_FusedConv2D", "input": ["model_91/tf.compat.v1.pad_15/Pad", "model_91/tf.nn.convolution_423/convolution/filter", "model_91/tf.math.add_241/Add/y"], "device": "/device:CPU:0", "attr": {"num_host_args": {"i": "0"}, "data_format": {"s": "TkhXQw=="}, "filter_format": {"s": "SFdJTw=="}, "strides": {"list": {"i": ["1", "2", "2", "1"]}}, "num_args": {"i": "1"}, "fused_ops": {"list": {"s": ["Qmlhc0FkZA=="]}}, "TArgs": {"list": {"type": ["DT_FLOAT"]}}, "padding": {"s": "VkFMSUQ="}, "use_cudnn_on_gpu": {"b": true}, "leakyrelu_alpha": {"f": 0.2}, "epsilon": {"f": 0.0}, "T": {"type": "DT_FLOAT"}, "explicit_paddings": {"list": {}}, "dilations": {"list": {"i": ["1", "1", "1", "1"]}}}}, {"name": "model_91/tf.math.sigmoid_157/Sigmoid", "op": "Sigmoid", "input": ["model_91/tf.math.add_241/Add"], "attr": {"T": {"type": "DT_FLOAT"}}}, {"name": "model_91/tf.math.multiply_1329/Mul", "op": "Mul", "input": ["model_91/tf.math.add_241/Add", "model_91/tf.math.sigmoid_157/Sigmoid"], "attr": {"_grappler_ArithmeticOptimizer_MinimizeBroadcasts": {"b": true}, "T": {"type": "DT_FLOAT"}}}, {"name": "model_91/tf.compat.v1.pad_16/Pad", "op": "Pad", "input": ["model_91/tf.math.multiply_1329/Mul", "model_91/tf.compat.v1.pad_16/Pad/paddings"], "attr": {"Tpaddings": {"type": "DT_INT32"}, "T": {"type": "DT_FLOAT"}}}, {"name": "model_91/tf.math.add_242/Add", "op": "_FusedConv2D", "input": ["model_91/tf.compat.v1.pad_16/Pad", "model_91/tf.nn.convolution_424/convolution/filter", "model_91/tf.math.add_242/Add/y"], "device": "/device:CPU:0", "attr": {"num_host_args": {"i": "0"}, "data_format": {"s": "TkhXQw=="}, "filter_format": {"s": "SFdJTw=="}, "strides": {"list": {"i": ["1", "2", "2", "1"]}}, "num_args": {"i": "1"}, "fused_ops": {"list": {"s": ["Qmlhc0FkZA=="]}}, "TArgs": {"list": {"type": ["DT_FLOAT"]}}, "padding": {"s": "VkFMSUQ="}, "use_cudnn_on_gpu": {"b": true}, "leakyrelu_alpha": {"f": 0.2}, "epsilon": {"f": 0.0}, "T": {"type": "DT_FLOAT"}, "explicit_paddings": {"list": {}}, "dilations": {"list": {"i": ["1", "1", "1", "1"]}}}}, {"name": "model_91/tf.math.sigmoid_158/Sigmoid", "op": "Sigmoid", "input": ["model_91/tf.math.add_242/Add"], "attr": {"T": {"type": "DT_FLOAT"}}}, {"name": "model_91/tf.math.multiply_1337/Mul", "op": "Mul", "input": ["model_91/tf.math.add_242/Add", "model_91/tf.math.sigmoid_158/Sigmoid"], "attr": {"_grappler_ArithmeticOptimizer_MinimizeBroadcasts": {"b": true}, "T": {"type": "DT_FLOAT"}}}, {"name": "model_91/tf.math.add_243/Add", "op": "_FusedConv2D", "input": ["model_91/tf.math.multiply_1337/Mul", "model_91/tf.nn.convolution_425/convolution/filter", "model_91/tf.math.add_243/Add/y"], "device": "/device:CPU:0", "attr": {"num_host_args": {"i": "0"}, "data_format": {"s": "TkhXQw=="}, "filter_format": {"s": "SFdJTw=="}, "fused_ops": {"list": {"s": ["Qmlhc0FkZA=="]}}, "num_args": {"i": "1"}, "strides": {"list": {"i": ["1", "1", "1", "1"]}}, "TArgs": {"list": {"type": ["DT_FLOAT"]}}, "padding": {"s": "U0FNRQ=="}, "use_cudnn_on_gpu": {"b": true}, "leakyrelu_alpha": {"f": 0.2}, "epsilon": {"f": 0.0}, "T": {"type": "DT_FLOAT"}, "explicit_paddings": {"list": {}}, "dilations": {"list": {"i": ["1", "1", "1", "1"]}}}}, {"name": "model_91/tf.math.sigmoid_159/Sigmoid", "op": "Sigmoid", "input": ["model_91/tf.math.add_243/Add"], "attr": {"T": {"type": "DT_FLOAT"}}}, {"name": "model_91/tf.math.multiply_1345/Mul", "op": "Mul", "input": ["model_91/tf.math.add_243/Add", "model_91/tf.math.sigmoid_159/Sigmoid"], "attr": {"_grappler_ArithmeticOptimizer_MinimizeBroadcasts": {"b": true}, "T": {"type": "DT_FLOAT"}}}, {"name": "model_91/tf.strided_slice_50/StridedSlice", "op": "StridedSlice", "input": ["model_91/tf.math.multiply_1345/Mul", "model_91/tf.strided_slice_50/ones_like/tensor", "model_91/tf.strided_slice_50/StridedSlice/end", "model_91/tf.strided_slice_50/ones_like"], "attr": {"shrink_axis_mask": {"i": "0"}, "Index": {"type": "DT_INT64"}, "new_axis_mask": {"i": "0"}, "begin_mask": {"i": "15"}, "end_mask": {"i": "7"}, "T": {"type": "DT_FLOAT"}, "ellipsis_mask": {"i": "0"}}}, {"name": "model_91/tf.strided_slice_51/StridedSlice", "op": "StridedSlice", "input": ["model_91/tf.math.multiply_1345/Mul", "model_91/tf.strided_slice_51/ones_like/tensor", "model_91/tf.strided_slice_51/StridedSlice/end", "model_91/tf.strided_slice_51/ones_like"], "attr": {"shrink_axis_mask": {"i": "0"}, "new_axis_mask": {"i": "0"}, "Index": {"type": "DT_INT64"}, "begin_mask": {"i": "7"}, "end_mask": {"i": "7"}, "T": {"type": "DT_FLOAT"}, "ellipsis_mask": {"i": "0"}}}, {"name": "model_91/tf.math.add_244/Add", "op": "_FusedConv2D", "input": ["model_91/tf.strided_slice_51/StridedSlice", "model_91/tf.nn.convolution_426/convolution/filter", "model_91/tf.math.add_244/Add/y"], "device": "/device:CPU:0", "attr": {"num_host_args": {"i": "0"}, "data_format": {"s": "TkhXQw=="}, "filter_format": {"s": "SFdJTw=="}, "strides": {"list": {"i": ["1", "1", "1", "1"]}}, "num_args": {"i": "1"}, "fused_ops": {"list": {"s": ["Qmlhc0FkZA=="]}}, "TArgs": {"list": {"type": ["DT_FLOAT"]}}, "padding": {"s": "U0FNRQ=="}, "use_cudnn_on_gpu": {"b": true}, "leakyrelu_alpha": {"f": 0.2}, "epsilon": {"f": 0.0}, "T": {"type": "DT_FLOAT"}, "explicit_paddings": {"list": {}}, "dilations": {"list": {"i": ["1", "1", "1", "1"]}}}}, {"name": "model_91/tf.math.sigmoid_160/Sigmoid", "op": "Sigmoid", "input": ["model_91/tf.math.add_244/Add"], "attr": {"T": {"type": "DT_FLOAT"}}}, {"name": "model_91/tf.math.multiply_1353/Mul", "op": "Mul", "input": ["model_91/tf.math.add_244/Add", "model_91/tf.math.sigmoid_160/Sigmoid"], "attr": {"_grappler_ArithmeticOptimizer_MinimizeBroadcasts": {"b": true}, "T": {"type": "DT_FLOAT"}}}, {"name": "model_91/tf.math.add_245/Add", "op": "_FusedConv2D", "input": ["model_91/tf.math.multiply_1353/Mul", "model_91/tf.nn.convolution_427/convolution/filter", "model_91/tf.math.add_245/Add/y"], "device": "/device:CPU:0", "attr": {"num_host_args": {"i": "0"}, "data_format": {"s": "TkhXQw=="}, "filter_format": {"s": "SFdJTw=="}, "strides": {"list": {"i": ["1", "1", "1", "1"]}}, "num_args": {"i": "1"}, "fused_ops": {"list": {"s": ["Qmlhc0FkZA=="]}}, "TArgs": {"list": {"type": ["DT_FLOAT"]}}, "padding": {"s": "U0FNRQ=="}, "use_cudnn_on_gpu": {"b": true}, "leakyrelu_alpha": {"f": 0.2}, "epsilon": {"f": 0.0}, "T": {"type": "DT_FLOAT"}, "explicit_paddings": {"list": {}}, "dilations": {"list": {"i": ["1", "1", "1", "1"]}}}}, {"name": "model_91/tf.math.sigmoid_161/Sigmoid", "op": "Sigmoid", "input": ["model_91/tf.math.add_245/Add"], "attr": {"T": {"type": "DT_FLOAT"}}}, {"name": "model_91/tf.math.multiply_1361/Mul", "op": "Mul", "input": ["model_91/tf.math.add_245/Add", "model_91/tf.math.sigmoid_161/Sigmoid"], "attr": {"_grappler_ArithmeticOptimizer_MinimizeBroadcasts": {"b": true}, "T": {"type": "DT_FLOAT"}}}, {"name": "model_91/tf.math.add_247/Add", "op": "AddV2", "input": ["model_91/tf.strided_slice_51/StridedSlice", "model_91/tf.math.multiply_1361/Mul"], "attr": {"T": {"type": "DT_FLOAT"}}}, {"name": "model_91/tf.concat_56/concat", "op": "ConcatV2", "input": ["model_91/tf.strided_slice_50/StridedSlice", "model_91/tf.strided_slice_51/StridedSlice", "model_91/tf.math.add_247/Add", "model_91/tf.concat_56/concat/axis"], "attr": {"N": {"i": "3"}, "Tidx": {"type": "DT_INT32"}, "T": {"type": "DT_FLOAT"}}}, {"name": "model_91/tf.math.add_248/Add", "op": "_FusedConv2D", "input": ["model_91/tf.concat_56/concat", "model_91/tf.nn.convolution_428/convolution/filter", "model_91/tf.math.add_248/Add/y"], "device": "/device:CPU:0", "attr": {"num_host_args": {"i": "0"}, "data_format": {"s": "TkhXQw=="}, "filter_format": {"s": "SFdJTw=="}, "strides": {"list": {"i": ["1", "1", "1", "1"]}}, "num_args": {"i": "1"}, "fused_ops": {"list": {"s": ["Qmlhc0FkZA=="]}}, "TArgs": {"list": {"type": ["DT_FLOAT"]}}, "padding": {"s": "U0FNRQ=="}, "use_cudnn_on_gpu": {"b": true}, "leakyrelu_alpha": {"f": 0.2}, "epsilon": {"f": 0.0}, "T": {"type": "DT_FLOAT"}, "explicit_paddings": {"list": {}}, "dilations": {"list": {"i": ["1", "1", "1", "1"]}}}}, {"name": "model_91/tf.math.sigmoid_162/Sigmoid", "op": "Sigmoid", "input": ["model_91/tf.math.add_248/Add"], "attr": {"T": {"type": "DT_FLOAT"}}}, {"name": "model_91/tf.math.multiply_1371/Mul", "op": "Mul", "input": ["model_91/tf.math.add_248/Add", "model_91/tf.math.sigmoid_162/Sigmoid"], "attr": {"_grappler_ArithmeticOptimizer_MinimizeBroadcasts": {"b": true}, "T": {"type": "DT_FLOAT"}}}, {"name": "model_91/tf.compat.v1.pad_17/Pad", "op": "Pad", "input": ["model_91/tf.math.multiply_1371/Mul", "model_91/tf.compat.v1.pad_17/Pad/paddings"], "attr": {"Tpaddings": {"type": "DT_INT32"}, "T": {"type": "DT_FLOAT"}}}, {"name": "model_91/tf.math.add_249/Add", "op": "_FusedConv2D", "input": ["model_91/tf.compat.v1.pad_17/Pad", "model_91/tf.nn.convolution_429/convolution/filter", "model_91/tf.math.add_249/Add/y"], "device": "/device:CPU:0", "attr": {"num_host_args": {"i": "0"}, "data_format": {"s": "TkhXQw=="}, "filter_format": {"s": "SFdJTw=="}, "strides": {"list": {"i": ["1", "2", "2", "1"]}}, "num_args": {"i": "1"}, "fused_ops": {"list": {"s": ["Qmlhc0FkZA=="]}}, "TArgs": {"list": {"type": ["DT_FLOAT"]}}, "padding": {"s": "VkFMSUQ="}, "use_cudnn_on_gpu": {"b": true}, "leakyrelu_alpha": {"f": 0.2}, "epsilon": {"f": 0.0}, "T": {"type": "DT_FLOAT"}, "explicit_paddings": {"list": {}}, "dilations": {"list": {"i": ["1", "1", "1", "1"]}}}}, {"name": "model_91/tf.math.sigmoid_163/Sigmoid", "op": "Sigmoid", "input": ["model_91/tf.math.add_249/Add"], "attr": {"T": {"type": "DT_FLOAT"}}}, {"name": "model_91/tf.math.multiply_1379/Mul", "op": "Mul", "input": ["model_91/tf.math.add_249/Add", "model_91/tf.math.sigmoid_163/Sigmoid"], "attr": {"_grappler_ArithmeticOptimizer_MinimizeBroadcasts": {"b": true}, "T": {"type": "DT_FLOAT"}}}, {"name": "model_91/tf.math.add_250/Add", "op": "_FusedConv2D", "input": ["model_91/tf.math.multiply_1379/Mul", "model_91/tf.nn.convolution_430/convolution/filter", "model_91/tf.math.add_250/Add/y"], "device": "/device:CPU:0", "attr": {"num_host_args": {"i": "0"}, "data_format": {"s": "TkhXQw=="}, "filter_format": {"s": "SFdJTw=="}, "strides": {"list": {"i": ["1", "1", "1", "1"]}}, "num_args": {"i": "1"}, "fused_ops": {"list": {"s": ["Qmlhc0FkZA=="]}}, "TArgs": {"list": {"type": ["DT_FLOAT"]}}, "padding": {"s": "U0FNRQ=="}, "use_cudnn_on_gpu": {"b": true}, "leakyrelu_alpha": {"f": 0.2}, "epsilon": {"f": 0.0}, "T": {"type": "DT_FLOAT"}, "explicit_paddings": {"list": {}}, "dilations": {"list": {"i": ["1", "1", "1", "1"]}}}}, {"name": "model_91/tf.math.sigmoid_164/Sigmoid", "op": "Sigmoid", "input": ["model_91/tf.math.add_250/Add"], "attr": {"T": {"type": "DT_FLOAT"}}}, {"name": "model_91/tf.math.multiply_1387/Mul", "op": "Mul", "input": ["model_91/tf.math.add_250/Add", "model_91/tf.math.sigmoid_164/Sigmoid"], "attr": {"_grappler_ArithmeticOptimizer_MinimizeBroadcasts": {"b": true}, "T": {"type": "DT_FLOAT"}}}, {"name": "model_91/tf.strided_slice_52/StridedSlice", "op": "StridedSlice", "input": ["model_91/tf.math.multiply_1387/Mul", "model_91/tf.strided_slice_52/ones_like/tensor", "model_91/tf.strided_slice_52/StridedSlice/end", "model_91/tf.strided_slice_52/ones_like"], "attr": {"shrink_axis_mask": {"i": "0"}, "Index": {"type": "DT_INT64"}, "new_axis_mask": {"i": "0"}, "begin_mask": {"i": "15"}, "T": {"type": "DT_FLOAT"}, "end_mask": {"i": "7"}, "ellipsis_mask": {"i": "0"}}}, {"name": "model_91/tf.strided_slice_53/StridedSlice", "op": "StridedSlice", "input": ["model_91/tf.math.multiply_1387/Mul", "model_91/tf.strided_slice_53/ones_like/tensor", "model_91/tf.strided_slice_53/StridedSlice/end", "model_91/tf.strided_slice_53/ones_like"], "attr": {"shrink_axis_mask": {"i": "0"}, "new_axis_mask": {"i": "0"}, "Index": {"type": "DT_INT64"}, "begin_mask": {"i": "7"}, "end_mask": {"i": "7"}, "T": {"type": "DT_FLOAT"}, "ellipsis_mask": {"i": "0"}}}, {"name": "model_91/tf.math.add_251/Add", "op": "_FusedConv2D", "input": ["model_91/tf.strided_slice_53/StridedSlice", "model_91/tf.nn.convolution_431/convolution/filter", "model_91/tf.math.add_251/Add/y"], "device": "/device:CPU:0", "attr": {"num_host_args": {"i": "0"}, "data_format": {"s": "TkhXQw=="}, "filter_format": {"s": "SFdJTw=="}, "fused_ops": {"list": {"s": ["Qmlhc0FkZA=="]}}, "num_args": {"i": "1"}, "strides": {"list": {"i": ["1", "1", "1", "1"]}}, "TArgs": {"list": {"type": ["DT_FLOAT"]}}, "padding": {"s": "U0FNRQ=="}, "use_cudnn_on_gpu": {"b": true}, "leakyrelu_alpha": {"f": 0.2}, "epsilon": {"f": 0.0}, "T": {"type": "DT_FLOAT"}, "explicit_paddings": {"list": {}}, "dilations": {"list": {"i": ["1", "1", "1", "1"]}}}}, {"name": "model_91/tf.math.sigmoid_165/Sigmoid", "op": "Sigmoid", "input": ["model_91/tf.math.add_251/Add"], "attr": {"T": {"type": "DT_FLOAT"}}}, {"name": "model_91/tf.math.multiply_1395/Mul", "op": "Mul", "input": ["model_91/tf.math.add_251/Add", "model_91/tf.math.sigmoid_165/Sigmoid"], "attr": {"_grappler_ArithmeticOptimizer_MinimizeBroadcasts": {"b": true}, "T": {"type": "DT_FLOAT"}}}, {"name": "model_91/tf.math.add_252/Add", "op": "_FusedConv2D", "input": ["model_91/tf.math.multiply_1395/Mul", "model_91/tf.nn.convolution_432/convolution/filter", "model_91/tf.math.add_252/Add/y"], "device": "/device:CPU:0", "attr": {"num_host_args": {"i": "0"}, "data_format": {"s": "TkhXQw=="}, "filter_format": {"s": "SFdJTw=="}, "fused_ops": {"list": {"s": ["Qmlhc0FkZA=="]}}, "num_args": {"i": "1"}, "strides": {"list": {"i": ["1", "1", "1", "1"]}}, "TArgs": {"list": {"type": ["DT_FLOAT"]}}, "padding": {"s": "U0FNRQ=="}, "use_cudnn_on_gpu": {"b": true}, "leakyrelu_alpha": {"f": 0.2}, "epsilon": {"f": 0.0}, "T": {"type": "DT_FLOAT"}, "explicit_paddings": {"list": {}}, "dilations": {"list": {"i": ["1", "1", "1", "1"]}}}}, {"name": "model_91/tf.math.sigmoid_166/Sigmoid", "op": "Sigmoid", "input": ["model_91/tf.math.add_252/Add"], "attr": {"T": {"type": "DT_FLOAT"}}}, {"name": "model_91/tf.math.multiply_1403/Mul", "op": "Mul", "input": ["model_91/tf.math.add_252/Add", "model_91/tf.math.sigmoid_166/Sigmoid"], "attr": {"_grappler_ArithmeticOptimizer_MinimizeBroadcasts": {"b": true}, "T": {"type": "DT_FLOAT"}}}, {"name": "model_91/tf.math.add_254/Add", "op": "AddV2", "input": ["model_91/tf.strided_slice_53/StridedSlice", "model_91/tf.math.multiply_1403/Mul"], "attr": {"T": {"type": "DT_FLOAT"}}}, {"name": "model_91/tf.concat_57/concat", "op": "ConcatV2", "input": ["model_91/tf.strided_slice_52/StridedSlice", "model_91/tf.strided_slice_53/StridedSlice", "model_91/tf.math.add_254/Add", "model_91/tf.concat_57/concat/axis"], "attr": {"N": {"i": "3"}, "T": {"type": "DT_FLOAT"}, "Tidx": {"type": "DT_INT32"}}}, {"name": "model_91/tf.math.add_255/Add", "op": "_FusedConv2D", "input": ["model_91/tf.concat_57/concat", "model_91/tf.nn.convolution_433/convolution/filter", "model_91/tf.math.add_255/Add/y"], "device": "/device:CPU:0", "attr": {"num_host_args": {"i": "0"}, "data_format": {"s": "TkhXQw=="}, "filter_format": {"s": "SFdJTw=="}, "strides": {"list": {"i": ["1", "1", "1", "1"]}}, "num_args": {"i": "1"}, "fused_ops": {"list": {"s": ["Qmlhc0FkZA=="]}}, "TArgs": {"list": {"type": ["DT_FLOAT"]}}, "padding": {"s": "U0FNRQ=="}, "use_cudnn_on_gpu": {"b": true}, "leakyrelu_alpha": {"f": 0.2}, "epsilon": {"f": 0.0}, "T": {"type": "DT_FLOAT"}, "explicit_paddings": {"list": {}}, "dilations": {"list": {"i": ["1", "1", "1", "1"]}}}}, {"name": "model_91/tf.math.sigmoid_167/Sigmoid", "op": "Sigmoid", "input": ["model_91/tf.math.add_255/Add"], "attr": {"T": {"type": "DT_FLOAT"}}}, {"name": "model_91/tf.math.multiply_1413/Mul", "op": "Mul", "input": ["model_91/tf.math.add_255/Add", "model_91/tf.math.sigmoid_167/Sigmoid"], "attr": {"_grappler_ArithmeticOptimizer_MinimizeBroadcasts": {"b": true}, "T": {"type": "DT_FLOAT"}}}, {"name": "model_91/tf.compat.v1.pad_18/Pad", "op": "Pad", "input": ["model_91/tf.math.multiply_1413/Mul", "model_91/tf.compat.v1.pad_18/Pad/paddings"], "attr": {"Tpaddings": {"type": "DT_INT32"}, "T": {"type": "DT_FLOAT"}}}, {"name": "model_91/tf.math.add_256/Add", "op": "_FusedConv2D", "input": ["model_91/tf.compat.v1.pad_18/Pad", "model_91/tf.nn.convolution_434/convolution/filter", "model_91/tf.math.add_256/Add/y"], "device": "/device:CPU:0", "attr": {"num_host_args": {"i": "0"}, "data_format": {"s": "TkhXQw=="}, "filter_format": {"s": "SFdJTw=="}, "fused_ops": {"list": {"s": ["Qmlhc0FkZA=="]}}, "num_args": {"i": "1"}, "strides": {"list": {"i": ["1", "2", "2", "1"]}}, "TArgs": {"list": {"type": ["DT_FLOAT"]}}, "padding": {"s": "VkFMSUQ="}, "use_cudnn_on_gpu": {"b": true}, "leakyrelu_alpha": {"f": 0.2}, "epsilon": {"f": 0.0}, "T": {"type": "DT_FLOAT"}, "explicit_paddings": {"list": {}}, "dilations": {"list": {"i": ["1", "1", "1", "1"]}}}}, {"name": "model_91/tf.math.sigmoid_168/Sigmoid", "op": "Sigmoid", "input": ["model_91/tf.math.add_256/Add"], "attr": {"T": {"type": "DT_FLOAT"}}}, {"name": "model_91/tf.math.multiply_1421/Mul", "op": "Mul", "input": ["model_91/tf.math.add_256/Add", "model_91/tf.math.sigmoid_168/Sigmoid"], "attr": {"_grappler_ArithmeticOptimizer_MinimizeBroadcasts": {"b": true}, "T": {"type": "DT_FLOAT"}}}, {"name": "model_91/tf.math.add_257/Add", "op": "_FusedConv2D", "input": ["model_91/tf.math.multiply_1421/Mul", "model_91/tf.nn.convolution_435/convolution/filter", "model_91/tf.math.add_257/Add/y"], "device": "/device:CPU:0", "attr": {"num_host_args": {"i": "0"}, "data_format": {"s": "TkhXQw=="}, "filter_format": {"s": "SFdJTw=="}, "fused_ops": {"list": {"s": ["Qmlhc0FkZA=="]}}, "num_args": {"i": "1"}, "strides": {"list": {"i": ["1", "1", "1", "1"]}}, "TArgs": {"list": {"type": ["DT_FLOAT"]}}, "padding": {"s": "U0FNRQ=="}, "use_cudnn_on_gpu": {"b": true}, "leakyrelu_alpha": {"f": 0.2}, "epsilon": {"f": 0.0}, "T": {"type": "DT_FLOAT"}, "explicit_paddings": {"list": {}}, "dilations": {"list": {"i": ["1", "1", "1", "1"]}}}}, {"name": "model_91/tf.math.sigmoid_169/Sigmoid", "op": "Sigmoid", "input": ["model_91/tf.math.add_257/Add"], "attr": {"T": {"type": "DT_FLOAT"}}}, {"name": "model_91/tf.math.multiply_1429/Mul", "op": "Mul", "input": ["model_91/tf.math.add_257/Add", "model_91/tf.math.sigmoid_169/Sigmoid"], "attr": {"_grappler_ArithmeticOptimizer_MinimizeBroadcasts": {"b": true}, "T": {"type": "DT_FLOAT"}}}, {"name": "model_91/tf.strided_slice_54/StridedSlice", "op": "StridedSlice", "input": ["model_91/tf.math.multiply_1429/Mul", "model_91/tf.strided_slice_54/ones_like/tensor", "model_91/tf.strided_slice_54/StridedSlice/end", "model_91/tf.strided_slice_54/ones_like"], "attr": {"shrink_axis_mask": {"i": "0"}, "new_axis_mask": {"i": "0"}, "Index": {"type": "DT_INT64"}, "begin_mask": {"i": "15"}, "T": {"type": "DT_FLOAT"}, "end_mask": {"i": "7"}, "ellipsis_mask": {"i": "0"}}}, {"name": "model_91/tf.strided_slice_55/StridedSlice", "op": "StridedSlice", "input": ["model_91/tf.math.multiply_1429/Mul", "model_91/tf.strided_slice_55/ones_like/tensor", "model_91/tf.strided_slice_55/StridedSlice/end", "model_91/tf.strided_slice_55/ones_like"], "attr": {"shrink_axis_mask": {"i": "0"}, "new_axis_mask": {"i": "0"}, "Index": {"type": "DT_INT64"}, "begin_mask": {"i": "7"}, "end_mask": {"i": "7"}, "T": {"type": "DT_FLOAT"}, "ellipsis_mask": {"i": "0"}}}, {"name": "model_91/tf.math.add_258/Add", "op": "_FusedConv2D", "input": ["model_91/tf.strided_slice_55/StridedSlice", "model_91/tf.nn.convolution_436/convolution/filter", "model_91/tf.math.add_258/Add/y"], "device": "/device:CPU:0", "attr": {"num_host_args": {"i": "0"}, "data_format": {"s": "TkhXQw=="}, "filter_format": {"s": "SFdJTw=="}, "strides": {"list": {"i": ["1", "1", "1", "1"]}}, "num_args": {"i": "1"}, "fused_ops": {"list": {"s": ["Qmlhc0FkZA=="]}}, "TArgs": {"list": {"type": ["DT_FLOAT"]}}, "padding": {"s": "U0FNRQ=="}, "use_cudnn_on_gpu": {"b": true}, "leakyrelu_alpha": {"f": 0.2}, "epsilon": {"f": 0.0}, "T": {"type": "DT_FLOAT"}, "explicit_paddings": {"list": {}}, "dilations": {"list": {"i": ["1", "1", "1", "1"]}}}}, {"name": "model_91/tf.math.add_259/Add", "op": "_FusedConv2D", "input": ["model_91/tf.strided_slice_55/StridedSlice", "model_91/tf.nn.convolution_437/convolution/filter", "model_91/tf.math.add_259/Add/y"], "device": "/device:CPU:0", "attr": {"num_host_args": {"i": "0"}, "data_format": {"s": "TkhXQw=="}, "filter_format": {"s": "SFdJTw=="}, "fused_ops": {"list": {"s": ["Qmlhc0FkZA=="]}}, "num_args": {"i": "1"}, "strides": {"list": {"i": ["1", "1", "1", "1"]}}, "TArgs": {"list": {"type": ["DT_FLOAT"]}}, "padding": {"s": "U0FNRQ=="}, "use_cudnn_on_gpu": {"b": true}, "leakyrelu_alpha": {"f": 0.2}, "epsilon": {"f": 0.0}, "T": {"type": "DT_FLOAT"}, "explicit_paddings": {"list": {}}, "dilations": {"list": {"i": ["1", "1", "1", "1"]}}}}, {"name": "model_91/tf.math.sigmoid_170/Sigmoid", "op": "Sigmoid", "input": ["model_91/tf.math.add_258/Add"], "attr": {"T": {"type": "DT_FLOAT"}}}, {"name": "model_91/tf.math.sigmoid_171/Sigmoid", "op": "Sigmoid", "input": ["model_91/tf.math.add_259/Add"], "attr": {"T": {"type": "DT_FLOAT"}}}, {"name": "model_91/tf.math.multiply_1437/Mul", "op": "Mul", "input": ["model_91/tf.math.add_258/Add", "model_91/tf.math.sigmoid_170/Sigmoid"], "attr": {"_grappler_ArithmeticOptimizer_MinimizeBroadcasts": {"b": true}, "T": {"type": "DT_FLOAT"}}}, {"name": "model_91/tf.math.multiply_1445/Mul", "op": "Mul", "input": ["model_91/tf.math.add_259/Add", "model_91/tf.math.sigmoid_171/Sigmoid"], "attr": {"_grappler_ArithmeticOptimizer_MinimizeBroadcasts": {"b": true}, "T": {"type": "DT_FLOAT"}}}, {"name": "model_91/tf.math.add_260/Add", "op": "_FusedConv2D", "input": ["model_91/tf.math.multiply_1437/Mul", "model_91/tf.nn.convolution_438/convolution/filter", "model_91/tf.math.add_260/Add/y"], "device": "/device:CPU:0", "attr": {"num_host_args": {"i": "0"}, "data_format": {"s": "TkhXQw=="}, "filter_format": {"s": "SFdJTw=="}, "strides": {"list": {"i": ["1", "1", "1", "1"]}}, "num_args": {"i": "1"}, "fused_ops": {"list": {"s": ["Qmlhc0FkZA=="]}}, "TArgs": {"list": {"type": ["DT_FLOAT"]}}, "padding": {"s": "U0FNRQ=="}, "use_cudnn_on_gpu": {"b": true}, "leakyrelu_alpha": {"f": 0.2}, "epsilon": {"f": 0.0}, "T": {"type": "DT_FLOAT"}, "explicit_paddings": {"list": {}}, "dilations": {"list": {"i": ["1", "1", "1", "1"]}}}}, {"name": "model_91/tf.math.sigmoid_172/Sigmoid", "op": "Sigmoid", "input": ["model_91/tf.math.add_260/Add"], "attr": {"T": {"type": "DT_FLOAT"}}}, {"name": "model_91/tf.math.multiply_1453/Mul", "op": "Mul", "input": ["model_91/tf.math.add_260/Add", "model_91/tf.math.sigmoid_172/Sigmoid"], "attr": {"_grappler_ArithmeticOptimizer_MinimizeBroadcasts": {"b": true}, "T": {"type": "DT_FLOAT"}}}, {"name": "model_91/tf.math.add_261/Add", "op": "_FusedConv2D", "input": ["model_91/tf.math.multiply_1453/Mul", "model_91/tf.nn.convolution_439/convolution/filter", "model_91/tf.math.add_261/Add/y"], "device": "/device:CPU:0", "attr": {"num_host_args": {"i": "0"}, "data_format": {"s": "TkhXQw=="}, "filter_format": {"s": "SFdJTw=="}, "fused_ops": {"list": {"s": ["Qmlhc0FkZA=="]}}, "num_args": {"i": "1"}, "strides": {"list": {"i": ["1", "1", "1", "1"]}}, "TArgs": {"list": {"type": ["DT_FLOAT"]}}, "padding": {"s": "U0FNRQ=="}, "use_cudnn_on_gpu": {"b": true}, "leakyrelu_alpha": {"f": 0.2}, "epsilon": {"f": 0.0}, "T": {"type": "DT_FLOAT"}, "explicit_paddings": {"list": {}}, "dilations": {"list": {"i": ["1", "1", "1", "1"]}}}}, {"name": "model_91/tf.math.sigmoid_173/Sigmoid", "op": "Sigmoid", "input": ["model_91/tf.math.add_261/Add"], "attr": {"T": {"type": "DT_FLOAT"}}}, {"name": "model_91/tf.math.multiply_1461/Mul", "op": "Mul", "input": ["model_91/tf.math.add_261/Add", "model_91/tf.math.sigmoid_173/Sigmoid"], "attr": {"_grappler_ArithmeticOptimizer_MinimizeBroadcasts": {"b": true}, "T": {"type": "DT_FLOAT"}}}, {"name": "model_91/tf.math.add_263/Add", "op": "AddV2", "input": ["model_91/tf.math.multiply_1437/Mul", "model_91/tf.math.multiply_1461/Mul"], "attr": {"T": {"type": "DT_FLOAT"}}}, {"name": "model_91/tf.math.add_264/Add", "op": "_FusedConv2D", "input": ["model_91/tf.math.add_263/Add", "model_91/tf.nn.convolution_440/convolution/filter", "model_91/tf.math.add_264/Add/y"], "device": "/device:CPU:0", "attr": {"num_host_args": {"i": "0"}, "data_format": {"s": "TkhXQw=="}, "filter_format": {"s": "SFdJTw=="}, "strides": {"list": {"i": ["1", "1", "1", "1"]}}, "num_args": {"i": "1"}, "fused_ops": {"list": {"s": ["Qmlhc0FkZA=="]}}, "TArgs": {"list": {"type": ["DT_FLOAT"]}}, "padding": {"s": "U0FNRQ=="}, "use_cudnn_on_gpu": {"b": true}, "leakyrelu_alpha": {"f": 0.2}, "epsilon": {"f": 0.0}, "T": {"type": "DT_FLOAT"}, "explicit_paddings": {"list": {}}, "dilations": {"list": {"i": ["1", "1", "1", "1"]}}}}, {"name": "model_91/tf.math.sigmoid_174/Sigmoid", "op": "Sigmoid", "input": ["model_91/tf.math.add_264/Add"], "attr": {"T": {"type": "DT_FLOAT"}}}, {"name": "model_91/tf.math.multiply_1471/Mul", "op": "Mul", "input": ["model_91/tf.math.add_264/Add", "model_91/tf.math.sigmoid_174/Sigmoid"], "attr": {"_grappler_ArithmeticOptimizer_MinimizeBroadcasts": {"b": true}, "T": {"type": "DT_FLOAT"}}}, {"name": "model_91/tf.math.add_265/Add", "op": "_FusedConv2D", "input": ["model_91/tf.math.multiply_1471/Mul", "model_91/tf.nn.convolution_441/convolution/filter", "model_91/tf.math.add_265/Add/y"], "device": "/device:CPU:0", "attr": {"num_host_args": {"i": "0"}, "data_format": {"s": "TkhXQw=="}, "filter_format": {"s": "SFdJTw=="}, "strides": {"list": {"i": ["1", "1", "1", "1"]}}, "num_args": {"i": "1"}, "fused_ops": {"list": {"s": ["Qmlhc0FkZA=="]}}, "TArgs": {"list": {"type": ["DT_FLOAT"]}}, "padding": {"s": "U0FNRQ=="}, "use_cudnn_on_gpu": {"b": true}, "leakyrelu_alpha": {"f": 0.2}, "epsilon": {"f": 0.0}, "T": {"type": "DT_FLOAT"}, "explicit_paddings": {"list": {}}, "dilations": {"list": {"i": ["1", "1", "1", "1"]}}}}, {"name": "model_91/tf.math.sigmoid_175/Sigmoid", "op": "Sigmoid", "input": ["model_91/tf.math.add_265/Add"], "attr": {"T": {"type": "DT_FLOAT"}}}, {"name": "model_91/tf.math.multiply_1479/Mul", "op": "Mul", "input": ["model_91/tf.math.add_265/Add", "model_91/tf.math.sigmoid_175/Sigmoid"], "attr": {"_grappler_ArithmeticOptimizer_MinimizeBroadcasts": {"b": true}, "T": {"type": "DT_FLOAT"}}}, {"name": "model_91/tf.math.add_267/Add", "op": "AddV2", "input": ["model_91/tf.math.add_263/Add", "model_91/tf.math.multiply_1479/Mul"], "attr": {"T": {"type": "DT_FLOAT"}}}, {"name": "model_91/tf.concat_58/concat", "op": "ConcatV2", "input": ["model_91/tf.math.add_267/Add", "model_91/tf.math.multiply_1445/Mul", "model_91/tf.concat_58/concat/axis"], "attr": {"N": {"i": "2"}, "Tidx": {"type": "DT_INT32"}, "T": {"type": "DT_FLOAT"}}}, {"name": "model_91/tf.math.add_268/Add", "op": "_FusedConv2D", "input": ["model_91/tf.concat_58/concat", "model_91/tf.nn.convolution_442/convolution/filter", "model_91/tf.math.add_268/Add/y"], "device": "/device:CPU:0", "attr": {"num_host_args": {"i": "0"}, "data_format": {"s": "TkhXQw=="}, "filter_format": {"s": "SFdJTw=="}, "strides": {"list": {"i": ["1", "1", "1", "1"]}}, "num_args": {"i": "1"}, "fused_ops": {"list": {"s": ["Qmlhc0FkZA=="]}}, "TArgs": {"list": {"type": ["DT_FLOAT"]}}, "padding": {"s": "U0FNRQ=="}, "use_cudnn_on_gpu": {"b": true}, "leakyrelu_alpha": {"f": 0.2}, "epsilon": {"f": 0.0}, "T": {"type": "DT_FLOAT"}, "explicit_paddings": {"list": {}}, "dilations": {"list": {"i": ["1", "1", "1", "1"]}}}}, {"name": "model_91/tf.math.sigmoid_176/Sigmoid", "op": "Sigmoid", "input": ["model_91/tf.math.add_268/Add"], "attr": {"T": {"type": "DT_FLOAT"}}}, {"name": "model_91/tf.math.multiply_1489/Mul", "op": "Mul", "input": ["model_91/tf.math.add_268/Add", "model_91/tf.math.sigmoid_176/Sigmoid"], "attr": {"_grappler_ArithmeticOptimizer_MinimizeBroadcasts": {"b": true}, "T": {"type": "DT_FLOAT"}}}, {"name": "model_91/tf.concat_59/concat", "op": "ConcatV2", "input": ["model_91/tf.strided_slice_54/StridedSlice", "model_91/tf.strided_slice_55/StridedSlice", "model_91/tf.math.multiply_1489/Mul", "model_91/tf.concat_59/concat/axis"], "attr": {"N": {"i": "3"}, "Tidx": {"type": "DT_INT32"}, "T": {"type": "DT_FLOAT"}}}, {"name": "model_91/tf.math.add_269/Add", "op": "_FusedConv2D", "input": ["model_91/tf.concat_59/concat", "model_91/tf.nn.convolution_443/convolution/filter", "model_91/tf.math.add_269/Add/y"], "device": "/device:CPU:0", "attr": {"num_host_args": {"i": "0"}, "data_format": {"s": "TkhXQw=="}, "filter_format": {"s": "SFdJTw=="}, "fused_ops": {"list": {"s": ["Qmlhc0FkZA=="]}}, "num_args": {"i": "1"}, "strides": {"list": {"i": ["1", "1", "1", "1"]}}, "TArgs": {"list": {"type": ["DT_FLOAT"]}}, "padding": {"s": "U0FNRQ=="}, "use_cudnn_on_gpu": {"b": true}, "leakyrelu_alpha": {"f": 0.2}, "epsilon": {"f": 0.0}, "T": {"type": "DT_FLOAT"}, "explicit_paddings": {"list": {}}, "dilations": {"list": {"i": ["1", "1", "1", "1"]}}}}, {"name": "model_91/tf.math.sigmoid_177/Sigmoid", "op": "Sigmoid", "input": ["model_91/tf.math.add_269/Add"], "attr": {"T": {"type": "DT_FLOAT"}}}, {"name": "model_91/tf.math.multiply_1497/Mul", "op": "Mul", "input": ["model_91/tf.math.add_269/Add", "model_91/tf.math.sigmoid_177/Sigmoid"], "attr": {"_grappler_ArithmeticOptimizer_MinimizeBroadcasts": {"b": true}, "T": {"type": "DT_FLOAT"}}}, {"name": "model_91/tf.compat.v1.pad_19/Pad", "op": "Pad", "input": ["model_91/tf.math.multiply_1497/Mul", "model_91/tf.compat.v1.pad_19/Pad/paddings"], "attr": {"Tpaddings": {"type": "DT_INT32"}, "T": {"type": "DT_FLOAT"}}}, {"name": "model_91/tf.math.add_270/Add", "op": "_FusedConv2D", "input": ["model_91/tf.compat.v1.pad_19/Pad", "model_91/tf.nn.convolution_444/convolution/filter", "model_91/tf.math.add_270/Add/y"], "device": "/device:CPU:0", "attr": {"num_host_args": {"i": "0"}, "data_format": {"s": "TkhXQw=="}, "filter_format": {"s": "SFdJTw=="}, "strides": {"list": {"i": ["1", "2", "2", "1"]}}, "num_args": {"i": "1"}, "fused_ops": {"list": {"s": ["Qmlhc0FkZA=="]}}, "TArgs": {"list": {"type": ["DT_FLOAT"]}}, "padding": {"s": "VkFMSUQ="}, "use_cudnn_on_gpu": {"b": true}, "leakyrelu_alpha": {"f": 0.2}, "epsilon": {"f": 0.0}, "T": {"type": "DT_FLOAT"}, "explicit_paddings": {"list": {}}, "dilations": {"list": {"i": ["1", "1", "1", "1"]}}}}, {"name": "model_91/tf.math.sigmoid_178/Sigmoid", "op": "Sigmoid", "input": ["model_91/tf.math.add_270/Add"], "attr": {"T": {"type": "DT_FLOAT"}}}, {"name": "model_91/tf.math.multiply_1505/Mul", "op": "Mul", "input": ["model_91/tf.math.add_270/Add", "model_91/tf.math.sigmoid_178/Sigmoid"], "attr": {"_grappler_ArithmeticOptimizer_MinimizeBroadcasts": {"b": true}, "T": {"type": "DT_FLOAT"}}}, {"name": "model_91/tf.math.add_271/Add", "op": "_FusedConv2D", "input": ["model_91/tf.math.multiply_1505/Mul", "model_91/tf.nn.convolution_445/convolution/filter", "model_91/tf.math.add_271/Add/y"], "device": "/device:CPU:0", "attr": {"num_host_args": {"i": "0"}, "data_format": {"s": "TkhXQw=="}, "filter_format": {"s": "SFdJTw=="}, "fused_ops": {"list": {"s": ["Qmlhc0FkZA=="]}}, "num_args": {"i": "1"}, "strides": {"list": {"i": ["1", "1", "1", "1"]}}, "TArgs": {"list": {"type": ["DT_FLOAT"]}}, "padding": {"s": "U0FNRQ=="}, "use_cudnn_on_gpu": {"b": true}, "leakyrelu_alpha": {"f": 0.2}, "epsilon": {"f": 0.0}, "T": {"type": "DT_FLOAT"}, "explicit_paddings": {"list": {}}, "dilations": {"list": {"i": ["1", "1", "1", "1"]}}}}, {"name": "model_91/tf.math.sigmoid_179/Sigmoid", "op": "Sigmoid", "input": ["model_91/tf.math.add_271/Add"], "attr": {"T": {"type": "DT_FLOAT"}}}, {"name": "model_91/tf.math.multiply_1513/Mul", "op": "Mul", "input": ["model_91/tf.math.add_271/Add", "model_91/tf.math.sigmoid_179/Sigmoid"], "attr": {"_grappler_ArithmeticOptimizer_MinimizeBroadcasts": {"b": true}, "T": {"type": "DT_FLOAT"}}}, {"name": "model_91/tf.strided_slice_56/StridedSlice", "op": "StridedSlice", "input": ["model_91/tf.math.multiply_1513/Mul", "model_91/tf.strided_slice_56/ones_like/tensor", "model_91/tf.strided_slice_56/StridedSlice/end", "model_91/tf.strided_slice_56/ones_like"], "attr": {"shrink_axis_mask": {"i": "0"}, "Index": {"type": "DT_INT64"}, "new_axis_mask": {"i": "0"}, "begin_mask": {"i": "15"}, "end_mask": {"i": "7"}, "T": {"type": "DT_FLOAT"}, "ellipsis_mask": {"i": "0"}}}, {"name": "model_91/tf.strided_slice_57/StridedSlice", "op": "StridedSlice", "input": ["model_91/tf.math.multiply_1513/Mul", "model_91/tf.strided_slice_57/ones_like/tensor", "model_91/tf.strided_slice_57/StridedSlice/end", "model_91/tf.strided_slice_57/ones_like"], "attr": {"shrink_axis_mask": {"i": "0"}, "Index": {"type": "DT_INT64"}, "new_axis_mask": {"i": "0"}, "begin_mask": {"i": "7"}, "T": {"type": "DT_FLOAT"}, "end_mask": {"i": "7"}, "ellipsis_mask": {"i": "0"}}}, {"name": "model_91/tf.math.add_272/Add", "op": "_FusedConv2D", "input": ["model_91/tf.strided_slice_57/StridedSlice", "model_91/tf.nn.convolution_446/convolution/filter", "model_91/tf.math.add_272/Add/y"], "device": "/device:CPU:0", "attr": {"num_host_args": {"i": "0"}, "data_format": {"s": "TkhXQw=="}, "filter_format": {"s": "SFdJTw=="}, "strides": {"list": {"i": ["1", "1", "1", "1"]}}, "num_args": {"i": "1"}, "fused_ops": {"list": {"s": ["Qmlhc0FkZA=="]}}, "TArgs": {"list": {"type": ["DT_FLOAT"]}}, "padding": {"s": "U0FNRQ=="}, "use_cudnn_on_gpu": {"b": true}, "leakyrelu_alpha": {"f": 0.2}, "epsilon": {"f": 0.0}, "T": {"type": "DT_FLOAT"}, "explicit_paddings": {"list": {}}, "dilations": {"list": {"i": ["1", "1", "1", "1"]}}}}, {"name": "model_91/tf.math.add_273/Add", "op": "_FusedConv2D", "input": ["model_91/tf.strided_slice_57/StridedSlice", "model_91/tf.nn.convolution_447/convolution/filter", "model_91/tf.math.add_273/Add/y"], "device": "/device:CPU:0", "attr": {"num_host_args": {"i": "0"}, "data_format": {"s": "TkhXQw=="}, "filter_format": {"s": "SFdJTw=="}, "fused_ops": {"list": {"s": ["Qmlhc0FkZA=="]}}, "num_args": {"i": "1"}, "strides": {"list": {"i": ["1", "1", "1", "1"]}}, "TArgs": {"list": {"type": ["DT_FLOAT"]}}, "padding": {"s": "U0FNRQ=="}, "use_cudnn_on_gpu": {"b": true}, "leakyrelu_alpha": {"f": 0.2}, "epsilon": {"f": 0.0}, "T": {"type": "DT_FLOAT"}, "explicit_paddings": {"list": {}}, "dilations": {"list": {"i": ["1", "1", "1", "1"]}}}}, {"name": "model_91/tf.math.sigmoid_180/Sigmoid", "op": "Sigmoid", "input": ["model_91/tf.math.add_272/Add"], "attr": {"T": {"type": "DT_FLOAT"}}}, {"name": "model_91/tf.math.sigmoid_181/Sigmoid", "op": "Sigmoid", "input": ["model_91/tf.math.add_273/Add"], "attr": {"T": {"type": "DT_FLOAT"}}}, {"name": "model_91/tf.math.multiply_1521/Mul", "op": "Mul", "input": ["model_91/tf.math.add_272/Add", "model_91/tf.math.sigmoid_180/Sigmoid"], "attr": {"_grappler_ArithmeticOptimizer_MinimizeBroadcasts": {"b": true}, "T": {"type": "DT_FLOAT"}}}, {"name": "model_91/tf.math.multiply_1529/Mul", "op": "Mul", "input": ["model_91/tf.math.add_273/Add", "model_91/tf.math.sigmoid_181/Sigmoid"], "attr": {"_grappler_ArithmeticOptimizer_MinimizeBroadcasts": {"b": true}, "T": {"type": "DT_FLOAT"}}}, {"name": "model_91/tf.math.add_274/Add", "op": "_FusedConv2D", "input": ["model_91/tf.math.multiply_1521/Mul", "model_91/tf.nn.convolution_448/convolution/filter", "model_91/tf.math.add_274/Add/y"], "device": "/device:CPU:0", "attr": {"num_host_args": {"i": "0"}, "data_format": {"s": "TkhXQw=="}, "filter_format": {"s": "SFdJTw=="}, "fused_ops": {"list": {"s": ["Qmlhc0FkZA=="]}}, "num_args": {"i": "1"}, "strides": {"list": {"i": ["1", "1", "1", "1"]}}, "TArgs": {"list": {"type": ["DT_FLOAT"]}}, "padding": {"s": "U0FNRQ=="}, "use_cudnn_on_gpu": {"b": true}, "leakyrelu_alpha": {"f": 0.2}, "epsilon": {"f": 0.0}, "T": {"type": "DT_FLOAT"}, "explicit_paddings": {"list": {}}, "dilations": {"list": {"i": ["1", "1", "1", "1"]}}}}, {"name": "model_91/tf.math.sigmoid_182/Sigmoid", "op": "Sigmoid", "input": ["model_91/tf.math.add_274/Add"], "attr": {"T": {"type": "DT_FLOAT"}}}, {"name": "model_91/tf.math.multiply_1537/Mul", "op": "Mul", "input": ["model_91/tf.math.add_274/Add", "model_91/tf.math.sigmoid_182/Sigmoid"], "attr": {"_grappler_ArithmeticOptimizer_MinimizeBroadcasts": {"b": true}, "T": {"type": "DT_FLOAT"}}}, {"name": "model_91/tf.math.add_275/Add", "op": "_FusedConv2D", "input": ["model_91/tf.math.multiply_1537/Mul", "model_91/tf.nn.convolution_449/convolution/filter", "model_91/tf.math.add_275/Add/y"], "device": "/device:CPU:0", "attr": {"num_host_args": {"i": "0"}, "data_format": {"s": "TkhXQw=="}, "filter_format": {"s": "SFdJTw=="}, "strides": {"list": {"i": ["1", "1", "1", "1"]}}, "num_args": {"i": "1"}, "fused_ops": {"list": {"s": ["Qmlhc0FkZA=="]}}, "TArgs": {"list": {"type": ["DT_FLOAT"]}}, "padding": {"s": "U0FNRQ=="}, "use_cudnn_on_gpu": {"b": true}, "leakyrelu_alpha": {"f": 0.2}, "epsilon": {"f": 0.0}, "T": {"type": "DT_FLOAT"}, "explicit_paddings": {"list": {}}, "dilations": {"list": {"i": ["1", "1", "1", "1"]}}}}, {"name": "model_91/tf.math.sigmoid_183/Sigmoid", "op": "Sigmoid", "input": ["model_91/tf.math.add_275/Add"], "attr": {"T": {"type": "DT_FLOAT"}}}, {"name": "model_91/tf.math.multiply_1545/Mul", "op": "Mul", "input": ["model_91/tf.math.add_275/Add", "model_91/tf.math.sigmoid_183/Sigmoid"], "attr": {"_grappler_ArithmeticOptimizer_MinimizeBroadcasts": {"b": true}, "T": {"type": "DT_FLOAT"}}}, {"name": "model_91/tf.math.add_277/Add", "op": "AddV2", "input": ["model_91/tf.math.multiply_1521/Mul", "model_91/tf.math.multiply_1545/Mul"], "attr": {"T": {"type": "DT_FLOAT"}}}, {"name": "model_91/tf.math.add_278/Add", "op": "_FusedConv2D", "input": ["model_91/tf.math.add_277/Add", "model_91/tf.nn.convolution_450/convolution/filter", "model_91/tf.math.add_278/Add/y"], "device": "/device:CPU:0", "attr": {"num_host_args": {"i": "0"}, "data_format": {"s": "TkhXQw=="}, "filter_format": {"s": "SFdJTw=="}, "fused_ops": {"list": {"s": ["Qmlhc0FkZA=="]}}, "num_args": {"i": "1"}, "strides": {"list": {"i": ["1", "1", "1", "1"]}}, "TArgs": {"list": {"type": ["DT_FLOAT"]}}, "padding": {"s": "U0FNRQ=="}, "use_cudnn_on_gpu": {"b": true}, "leakyrelu_alpha": {"f": 0.2}, "epsilon": {"f": 0.0}, "T": {"type": "DT_FLOAT"}, "explicit_paddings": {"list": {}}, "dilations": {"list": {"i": ["1", "1", "1", "1"]}}}}, {"name": "model_91/tf.math.sigmoid_184/Sigmoid", "op": "Sigmoid", "input": ["model_91/tf.math.add_278/Add"], "attr": {"T": {"type": "DT_FLOAT"}}}, {"name": "model_91/tf.math.multiply_1555/Mul", "op": "Mul", "input": ["model_91/tf.math.add_278/Add", "model_91/tf.math.sigmoid_184/Sigmoid"], "attr": {"_grappler_ArithmeticOptimizer_MinimizeBroadcasts": {"b": true}, "T": {"type": "DT_FLOAT"}}}, {"name": "model_91/tf.math.add_279/Add", "op": "_FusedConv2D", "input": ["model_91/tf.math.multiply_1555/Mul", "model_91/tf.nn.convolution_451/convolution/filter", "model_91/tf.math.add_279/Add/y"], "device": "/device:CPU:0", "attr": {"num_host_args": {"i": "0"}, "data_format": {"s": "TkhXQw=="}, "filter_format": {"s": "SFdJTw=="}, "fused_ops": {"list": {"s": ["Qmlhc0FkZA=="]}}, "num_args": {"i": "1"}, "strides": {"list": {"i": ["1", "1", "1", "1"]}}, "TArgs": {"list": {"type": ["DT_FLOAT"]}}, "padding": {"s": "U0FNRQ=="}, "use_cudnn_on_gpu": {"b": true}, "leakyrelu_alpha": {"f": 0.2}, "epsilon": {"f": 0.0}, "T": {"type": "DT_FLOAT"}, "explicit_paddings": {"list": {}}, "dilations": {"list": {"i": ["1", "1", "1", "1"]}}}}, {"name": "model_91/tf.math.sigmoid_185/Sigmoid", "op": "Sigmoid", "input": ["model_91/tf.math.add_279/Add"], "attr": {"T": {"type": "DT_FLOAT"}}}, {"name": "model_91/tf.math.multiply_1563/Mul", "op": "Mul", "input": ["model_91/tf.math.add_279/Add", "model_91/tf.math.sigmoid_185/Sigmoid"], "attr": {"_grappler_ArithmeticOptimizer_MinimizeBroadcasts": {"b": true}, "T": {"type": "DT_FLOAT"}}}, {"name": "model_91/tf.math.add_281/Add", "op": "AddV2", "input": ["model_91/tf.math.add_277/Add", "model_91/tf.math.multiply_1563/Mul"], "attr": {"T": {"type": "DT_FLOAT"}}}, {"name": "model_91/tf.concat_60/concat", "op": "ConcatV2", "input": ["model_91/tf.math.add_281/Add", "model_91/tf.math.multiply_1529/Mul", "model_91/tf.concat_60/concat/axis"], "attr": {"N": {"i": "2"}, "T": {"type": "DT_FLOAT"}, "Tidx": {"type": "DT_INT32"}}}, {"name": "model_91/tf.math.add_282/Add", "op": "_FusedConv2D", "input": ["model_91/tf.concat_60/concat", "model_91/tf.nn.convolution_452/convolution/filter", "model_91/tf.math.add_282/Add/y"], "device": "/device:CPU:0", "attr": {"num_host_args": {"i": "0"}, "data_format": {"s": "TkhXQw=="}, "filter_format": {"s": "SFdJTw=="}, "fused_ops": {"list": {"s": ["Qmlhc0FkZA=="]}}, "num_args": {"i": "1"}, "strides": {"list": {"i": ["1", "1", "1", "1"]}}, "TArgs": {"list": {"type": ["DT_FLOAT"]}}, "padding": {"s": "U0FNRQ=="}, "use_cudnn_on_gpu": {"b": true}, "leakyrelu_alpha": {"f": 0.2}, "epsilon": {"f": 0.0}, "T": {"type": "DT_FLOAT"}, "explicit_paddings": {"list": {}}, "dilations": {"list": {"i": ["1", "1", "1", "1"]}}}}, {"name": "model_91/tf.math.sigmoid_186/Sigmoid", "op": "Sigmoid", "input": ["model_91/tf.math.add_282/Add"], "attr": {"T": {"type": "DT_FLOAT"}}}, {"name": "model_91/tf.math.multiply_1573/Mul", "op": "Mul", "input": ["model_91/tf.math.add_282/Add", "model_91/tf.math.sigmoid_186/Sigmoid"], "attr": {"_grappler_ArithmeticOptimizer_MinimizeBroadcasts": {"b": true}, "T": {"type": "DT_FLOAT"}}}, {"name": "model_91/tf.concat_61/concat", "op": "ConcatV2", "input": ["model_91/tf.strided_slice_56/StridedSlice", "model_91/tf.strided_slice_57/StridedSlice", "model_91/tf.math.multiply_1573/Mul", "model_91/tf.concat_61/concat/axis"], "attr": {"N": {"i": "3"}, "T": {"type": "DT_FLOAT"}, "Tidx": {"type": "DT_INT32"}}}, {"name": "model_91/tf.math.add_283/Add", "op": "_FusedConv2D", "input": ["model_91/tf.concat_61/concat", "model_91/tf.nn.convolution_453/convolution/filter", "model_91/tf.math.add_283/Add/y"], "device": "/device:CPU:0", "attr": {"num_host_args": {"i": "0"}, "data_format": {"s": "TkhXQw=="}, "filter_format": {"s": "SFdJTw=="}, "strides": {"list": {"i": ["1", "1", "1", "1"]}}, "num_args": {"i": "1"}, "fused_ops": {"list": {"s": ["Qmlhc0FkZA=="]}}, "TArgs": {"list": {"type": ["DT_FLOAT"]}}, "padding": {"s": "U0FNRQ=="}, "use_cudnn_on_gpu": {"b": true}, "leakyrelu_alpha": {"f": 0.2}, "epsilon": {"f": 0.0}, "T": {"type": "DT_FLOAT"}, "explicit_paddings": {"list": {}}, "dilations": {"list": {"i": ["1", "1", "1", "1"]}}}}, {"name": "model_91/tf.math.sigmoid_187/Sigmoid", "op": "Sigmoid", "input": ["model_91/tf.math.add_283/Add"], "attr": {"T": {"type": "DT_FLOAT"}}}, {"name": "model_91/tf.math.multiply_1581/Mul", "op": "Mul", "input": ["model_91/tf.math.add_283/Add", "model_91/tf.math.sigmoid_187/Sigmoid"], "attr": {"_grappler_ArithmeticOptimizer_MinimizeBroadcasts": {"b": true}, "T": {"type": "DT_FLOAT"}}}, {"name": "model_91/tf.math.add_284/Add", "op": "_FusedConv2D", "input": ["model_91/tf.math.multiply_1581/Mul", "model_91/tf.nn.convolution_454/convolution/filter", "model_91/tf.math.add_284/Add/y"], "device": "/device:CPU:0", "attr": {"num_host_args": {"i": "0"}, "data_format": {"s": "TkhXQw=="}, "filter_format": {"s": "SFdJTw=="}, "strides": {"list": {"i": ["1", "1", "1", "1"]}}, "num_args": {"i": "1"}, "fused_ops": {"list": {"s": ["Qmlhc0FkZA=="]}}, "TArgs": {"list": {"type": ["DT_FLOAT"]}}, "padding": {"s": "U0FNRQ=="}, "use_cudnn_on_gpu": {"b": true}, "leakyrelu_alpha": {"f": 0.2}, "epsilon": {"f": 0.0}, "T": {"type": "DT_FLOAT"}, "explicit_paddings": {"list": {}}, "dilations": {"list": {"i": ["1", "1", "1", "1"]}}}}, {"name": "model_91/tf.math.sigmoid_188/Sigmoid", "op": "Sigmoid", "input": ["model_91/tf.math.add_284/Add"], "attr": {"T": {"type": "DT_FLOAT"}}}, {"name": "model_91/tf.math.multiply_1589/Mul", "op": "Mul", "input": ["model_91/tf.math.add_284/Add", "model_91/tf.math.sigmoid_188/Sigmoid"], "attr": {"_grappler_ArithmeticOptimizer_MinimizeBroadcasts": {"b": true}, "T": {"type": "DT_FLOAT"}}}, {"name": "model_91/tf.compat.v1.nn.pool_6/max_pool", "op": "MaxPool", "input": ["model_91/tf.math.multiply_1589/Mul"], "attr": {"ksize": {"list": {"i": ["1", "5", "5", "1"]}}, "data_format": {"s": "TkhXQw=="}, "T": {"type": "DT_FLOAT"}, "explicit_paddings": {"list": {}}, "padding": {"s": "U0FNRQ=="}, "strides": {"list": {"i": ["1", "1", "1", "1"]}}}}, {"name": "model_91/tf.compat.v1.nn.pool_7/max_pool", "op": "MaxPool", "input": ["model_91/tf.compat.v1.nn.pool_6/max_pool"], "attr": {"padding": {"s": "U0FNRQ=="}, "data_format": {"s": "TkhXQw=="}, "T": {"type": "DT_FLOAT"}, "explicit_paddings": {"list": {}}, "ksize": {"list": {"i": ["1", "5", "5", "1"]}}, "strides": {"list": {"i": ["1", "1", "1", "1"]}}}}, {"name": "model_91/tf.compat.v1.nn.pool_8/max_pool", "op": "MaxPool", "input": ["model_91/tf.compat.v1.nn.pool_7/max_pool"], "attr": {"ksize": {"list": {"i": ["1", "5", "5", "1"]}}, "data_format": {"s": "TkhXQw=="}, "T": {"type": "DT_FLOAT"}, "explicit_paddings": {"list": {}}, "padding": {"s": "U0FNRQ=="}, "strides": {"list": {"i": ["1", "1", "1", "1"]}}}}, {"name": "model_91/tf.concat_62/concat", "op": "ConcatV2", "input": ["model_91/tf.math.multiply_1589/Mul", "model_91/tf.compat.v1.nn.pool_6/max_pool", "model_91/tf.compat.v1.nn.pool_7/max_pool", "model_91/tf.compat.v1.nn.pool_8/max_pool", "model_91/tf.concat_62/concat/axis"], "attr": {"N": {"i": "4"}, "T": {"type": "DT_FLOAT"}, "Tidx": {"type": "DT_INT32"}}}, {"name": "model_91/tf.math.add_285/Add", "op": "_FusedConv2D", "input": ["model_91/tf.concat_62/concat", "model_91/tf.nn.convolution_455/convolution/filter", "model_91/tf.math.add_285/Add/y"], "device": "/device:CPU:0", "attr": {"num_host_args": {"i": "0"}, "data_format": {"s": "TkhXQw=="}, "filter_format": {"s": "SFdJTw=="}, "fused_ops": {"list": {"s": ["Qmlhc0FkZA=="]}}, "num_args": {"i": "1"}, "strides": {"list": {"i": ["1", "1", "1", "1"]}}, "TArgs": {"list": {"type": ["DT_FLOAT"]}}, "padding": {"s": "U0FNRQ=="}, "use_cudnn_on_gpu": {"b": true}, "leakyrelu_alpha": {"f": 0.2}, "epsilon": {"f": 0.0}, "T": {"type": "DT_FLOAT"}, "explicit_paddings": {"list": {}}, "dilations": {"list": {"i": ["1", "1", "1", "1"]}}}}, {"name": "model_91/tf.math.sigmoid_189/Sigmoid", "op": "Sigmoid", "input": ["model_91/tf.math.add_285/Add"], "attr": {"T": {"type": "DT_FLOAT"}}}, {"name": "model_91/tf.math.multiply_1597/Mul", "op": "Mul", "input": ["model_91/tf.math.add_285/Add", "model_91/tf.math.sigmoid_189/Sigmoid"], "attr": {"_grappler_ArithmeticOptimizer_MinimizeBroadcasts": {"b": true}, "T": {"type": "DT_FLOAT"}}}, {"name": "model_91/tf.math.add_286/Add", "op": "_FusedConv2D", "input": ["model_91/tf.math.multiply_1597/Mul", "model_91/tf.nn.convolution_456/convolution/filter", "model_91/tf.math.add_286/Add/y"], "device": "/device:CPU:0", "attr": {"num_host_args": {"i": "0"}, "data_format": {"s": "TkhXQw=="}, "filter_format": {"s": "SFdJTw=="}, "fused_ops": {"list": {"s": ["Qmlhc0FkZA=="]}}, "num_args": {"i": "1"}, "strides": {"list": {"i": ["1", "1", "1", "1"]}}, "TArgs": {"list": {"type": ["DT_FLOAT"]}}, "padding": {"s": "U0FNRQ=="}, "use_cudnn_on_gpu": {"b": true}, "leakyrelu_alpha": {"f": 0.2}, "epsilon": {"f": 0.0}, "T": {"type": "DT_FLOAT"}, "explicit_paddings": {"list": {}}, "dilations": {"list": {"i": ["1", "1", "1", "1"]}}}}, {"name": "model_91/tf.math.sigmoid_190/Sigmoid", "op": "Sigmoid", "input": ["model_91/tf.math.add_286/Add"], "attr": {"T": {"type": "DT_FLOAT"}}}, {"name": "model_91/tf.math.multiply_1605/Mul", "op": "Mul", "input": ["model_91/tf.math.add_286/Add", "model_91/tf.math.sigmoid_190/Sigmoid"], "attr": {"_grappler_ArithmeticOptimizer_MinimizeBroadcasts": {"b": true}, "T": {"type": "DT_FLOAT"}}}, {"name": "model_91/tf.strided_slice_58/StridedSlice", "op": "StridedSlice", "input": ["model_91/tf.math.multiply_1605/Mul", "model_91/tf.strided_slice_58/StridedSlice/begin", "model_91/tf.strided_slice_58/StridedSlice/end", "model_91/tf.strided_slice_58/ones_like"], "attr": {"shrink_axis_mask": {"i": "0"}, "Index": {"type": "DT_INT32"}, "new_axis_mask": {"i": "0"}, "begin_mask": {"i": "7"}, "T": {"type": "DT_FLOAT"}, "end_mask": {"i": "7"}, "ellipsis_mask": {"i": "0"}}}, {"name": "model_91/tf.strided_slice_59/StridedSlice", "op": "StridedSlice", "input": ["model_91/tf.math.multiply_1605/Mul", "model_91/tf.strided_slice_59/StridedSlice/begin", "model_91/tf.strided_slice_59/StridedSlice/end", "model_91/tf.strided_slice_59/ones_like"], "attr": {"shrink_axis_mask": {"i": "0"}, "new_axis_mask": {"i": "0"}, "Index": {"type": "DT_INT32"}, "begin_mask": {"i": "7"}, "T": {"type": "DT_FLOAT"}, "end_mask": {"i": "7"}, "ellipsis_mask": {"i": "0"}}}, {"name": "model_91/tf.math.add_287/Add", "op": "_FusedConv2D", "input": ["model_91/tf.strided_slice_59/StridedSlice", "model_91/tf.nn.convolution_457/convolution/filter", "model_91/tf.math.add_287/Add/y"], "device": "/device:CPU:0", "attr": {"num_host_args": {"i": "0"}, "data_format": {"s": "TkhXQw=="}, "filter_format": {"s": "SFdJTw=="}, "fused_ops": {"list": {"s": ["Qmlhc0FkZA=="]}}, "num_args": {"i": "1"}, "strides": {"list": {"i": ["1", "1", "1", "1"]}}, "TArgs": {"list": {"type": ["DT_FLOAT"]}}, "padding": {"s": "U0FNRQ=="}, "use_cudnn_on_gpu": {"b": true}, "leakyrelu_alpha": {"f": 0.2}, "epsilon": {"f": 0.0}, "T": {"type": "DT_FLOAT"}, "explicit_paddings": {"list": {}}, "dilations": {"list": {"i": ["1", "1", "1", "1"]}}}}, {"name": "model_91/tf.compat.v1.transpose_325/transpose", "op": "Transpose", "input": ["model_91/tf.math.add_287/Add", "model_91/tf.compat.v1.transpose_325/transpose/perm"], "attr": {"Tperm": {"type": "DT_INT32"}, "T": {"type": "DT_FLOAT"}}}, {"name": "model_91/tf.reshape_50/Reshape", "op": "Reshape", "input": ["model_91/tf.compat.v1.transpose_325/transpose", "model_91/tf.reshape_50/Reshape/shape"], "attr": {"T": {"type": "DT_FLOAT"}, "Tshape": {"type": "DT_INT32"}}}, {"name": "model_91/tf.strided_slice_60/StridedSlice", "op": "StridedSlice", "input": ["model_91/tf.reshape_50/Reshape", "model_91/tf.strided_slice_60/StridedSlice/begin", "model_91/tf.strided_slice_60/StridedSlice/end", "model_91/tf.strided_slice_60/ones_like"], "attr": {"shrink_axis_mask": {"i": "0"}, "Index": {"type": "DT_INT32"}, "new_axis_mask": {"i": "0"}, "begin_mask": {"i": "11"}, "end_mask": {"i": "11"}, "T": {"type": "DT_FLOAT"}, "ellipsis_mask": {"i": "0"}}}, {"name": "model_91/tf.strided_slice_61/StridedSlice", "op": "StridedSlice", "input": ["model_91/tf.reshape_50/Reshape", "model_91/tf.strided_slice_61/StridedSlice/begin", "model_91/tf.strided_slice_61/StridedSlice/end", "model_91/tf.strided_slice_61/ones_like"], "attr": {"shrink_axis_mask": {"i": "0"}, "Index": {"type": "DT_INT32"}, "new_axis_mask": {"i": "0"}, "begin_mask": {"i": "11"}, "end_mask": {"i": "11"}, "T": {"type": "DT_FLOAT"}, "ellipsis_mask": {"i": "0"}}}, {"name": "model_91/tf.strided_slice_62/StridedSlice", "op": "StridedSlice", "input": ["model_91/tf.reshape_50/Reshape", "model_91/tf.strided_slice_62/StridedSlice/begin", "model_91/tf.strided_slice_62/StridedSlice/end", "model_91/tf.strided_slice_62/ones_like"], "attr": {"shrink_axis_mask": {"i": "0"}, "new_axis_mask": {"i": "0"}, "Index": {"type": "DT_INT32"}, "begin_mask": {"i": "11"}, "end_mask": {"i": "11"}, "T": {"type": "DT_FLOAT"}, "ellipsis_mask": {"i": "0"}}}, {"name": "model_91/tf.linalg.matmul_9/ArithmeticOptimizer/FoldTransposeIntoMatMul_MatMul", "op": "BatchMatMulV2", "input": ["model_91/tf.strided_slice_60/StridedSlice", "model_91/tf.strided_slice_61/StridedSlice"], "attr": {"grad_y": {"b": false}, "adj_x": {"b": true}, "T": {"type": "DT_FLOAT"}, "grad_x": {"b": false}, "adj_y": {"b": false}}}, {"name": "model_91/tf.reshape_53/Reshape", "op": "Reshape", "input": ["model_91/tf.strided_slice_62/StridedSlice", "model_91/tf.reshape_53/Reshape/shape"], "attr": {"T": {"type": "DT_FLOAT"}, "Tshape": {"type": "DT_INT32"}}}, {"name": "model_91/tf.math.multiply_1612/Mul", "op": "Mul", "input": ["model_91/tf.linalg.matmul_9/ArithmeticOptimizer/FoldTransposeIntoMatMul_MatMul", "model_91/tf.math.multiply_1612/Mul/y"], "attr": {"T": {"type": "DT_FLOAT"}}}, {"name": "model_91/tf.compat.v1.transpose_333/transpose", "op": "Transpose", "input": ["model_91/tf.reshape_53/Reshape", "model_91/tf.compat.v1.transpose_333/transpose/perm"], "attr": {"Tperm": {"type": "DT_INT32"}, "T": {"type": "DT_FLOAT"}}}, {"name": "model_91/tf.nn.softmax_7/wa/model.10/m/m.0/attn/Softmax", "op": "Softmax", "input": ["model_91/tf.math.multiply_1612/Mul"], "attr": {"T": {"type": "DT_FLOAT"}}}, {"name": "model_91/tf.split_2/split", "op": "Split", "input": ["model_91/tf.split_2/split/split_dim", "model_91/tf.compat.v1.transpose_333/transpose"], "attr": {"num_split": {"i": "128"}, "T": {"type": "DT_FLOAT"}}}, {"name": "model_91/tf.linalg.matmul_11/ArithmeticOptimizer/FoldTransposeIntoMatMul_MatMul", "op": "BatchMatMulV2", "input": ["model_91/tf.strided_slice_62/StridedSlice", "model_91/tf.nn.softmax_7/wa/model.10/m/m.0/attn/Softmax"], "attr": {"adj_x": {"b": false}, "grad_y": {"b": false}, "T": {"type": "DT_FLOAT"}, "grad_x": {"b": false}, "adj_y": {"b": true}}}, {"name": "model_91/tf.nn.convolution_458/convolution", "op": "Conv2D", "input": ["model_91/tf.split_2/split", "model_91/tf.nn.convolution_458/convolution/filter"], "device": "/device:CPU:0", "attr": {"padding": {"s": "U0FNRQ=="}, "data_format": {"s": "TkhXQw=="}, "strides": {"list": {"i": ["1", "1", "1", "1"]}}, "use_cudnn_on_gpu": {"b": true}, "T": {"type": "DT_FLOAT"}, "explicit_paddings": {"list": {}}, "dilations": {"list": {"i": ["1", "1", "1", "1"]}}}}, {"name": "model_91/tf.nn.convolution_459/convolution", "op": "Conv2D", "input": ["model_91/tf.split_2/split:1", "model_91/tf.nn.convolution_459/convolution/filter"], "device": "/device:CPU:0", "attr": {"padding": {"s": "U0FNRQ=="}, "data_format": {"s": "TkhXQw=="}, "use_cudnn_on_gpu": {"b": true}, "strides": {"list": {"i": ["1", "1", "1", "1"]}}, "T": {"type": "DT_FLOAT"}, "explicit_paddings": {"list": {}}, "dilations": {"list": {"i": ["1", "1", "1", "1"]}}}}, {"name": "model_91/tf.nn.convolution_460/convolution", "op": "Conv2D", "input": ["model_91/tf.split_2/split:2", "model_91/tf.nn.convolution_460/convolution/filter"], "device": "/device:CPU:0", "attr": {"padding": {"s": "U0FNRQ=="}, "data_format": {"s": "TkhXQw=="}, "strides": {"list": {"i": ["1", "1", "1", "1"]}}, "use_cudnn_on_gpu": {"b": true}, "T": {"type": "DT_FLOAT"}, "explicit_paddings": {"list": {}}, "dilations": {"list": {"i": ["1", "1", "1", "1"]}}}}, {"name": "model_91/tf.nn.convolution_461/convolution", "op": "Conv2D", "input": ["model_91/tf.split_2/split:3", "model_91/tf.nn.conv…
math.multiply_1960/Mul", "model_91/tf.nn.convolution_629/convolution/filter", "model_91/tf.math.add_354/Add/y"], "device": "/device:CPU:0", "attr": {"num_host_args": {"i": "0"}, "data_format": {"s": "TkhXQw=="}, "filter_format": {"s": "SFdJTw=="}, "fused_ops": {"list": {"s": ["Qmlhc0FkZA=="]}}, "num_args": {"i": "1"}, "strides": {"list": {"i": ["1", "1", "1", "1"]}}, "TArgs": {"list": {"type": ["DT_FLOAT"]}}, "padding": {"s": "U0FNRQ=="}, "use_cudnn_on_gpu": {"b": true}, "leakyrelu_alpha": {"f": 0.2}, "epsilon": {"f": 0.0}, "T": {"type": "DT_FLOAT"}, "explicit_paddings": {"list": {}}, "dilations": {"list": {"i": ["1", "1", "1", "1"]}}}}, {"name": "model_91/tf.math.sigmoid_233/Sigmoid", "op": "Sigmoid", "input": ["model_91/tf.math.add_354/Add"], "attr": {"T": {"type": "DT_FLOAT"}}}, {"name": "model_91/tf.math.multiply_1968/Mul", "op": "Mul", "input": ["model_91/tf.math.add_354/Add", "model_91/tf.math.sigmoid_233/Sigmoid"], "attr": {"_grappler_ArithmeticOptimizer_MinimizeBroadcasts": {"b": true}, "T": {"type": "DT_FLOAT"}}}, {"name": "model_91/tf.math.add_355/Add", "op": "_FusedConv2D", "input": ["model_91/tf.math.multiply_1968/Mul", "model_91/tf.nn.convolution_630/convolution/filter", "model_91/tf.math.add_355/Add/y"], "device": "/device:CPU:0", "attr": {"num_host_args": {"i": "0"}, "data_format": {"s": "TkhXQw=="}, "filter_format": {"s": "SFdJTw=="}, "strides": {"list": {"i": ["1", "1", "1", "1"]}}, "num_args": {"i": "1"}, "fused_ops": {"list": {"s": ["Qmlhc0FkZA=="]}}, "TArgs": {"list": {"type": ["DT_FLOAT"]}}, "padding": {"s": "U0FNRQ=="}, "use_cudnn_on_gpu": {"b": true}, "leakyrelu_alpha": {"f": 0.2}, "epsilon": {"f": 0.0}, "T": {"type": "DT_FLOAT"}, "explicit_paddings": {"list": {}}, "dilations": {"list": {"i": ["1", "1", "1", "1"]}}}}, {"name": "model_91/tf.concat_76/concat", "op": "ConcatV2", "input": ["model_91/tf.math.add_352/Add", "model_91/tf.math.add_355/Add", "model_91/tf.concat_76/concat/axis"], "attr": {"N": {"i": "2"}, "Tidx": {"type": "DT_INT32"}, "T": {"type": "DT_FLOAT"}}}, {"name": "model_91/tf.compat.v1.transpose_404/transpose", "op": "Transpose", "input": ["model_91/tf.concat_76/concat", "model_91/tf.compat.v1.transpose_404/transpose/perm"], "attr": {"Tperm": {"type": "DT_INT32"}, "T": {"type": "DT_FLOAT"}}}, {"name": "model_91/tf.reshape_65/Reshape", "op": "Reshape", "input": ["model_91/tf.compat.v1.transpose_404/transpose", "model_91/tf.reshape_65/Reshape/shape"], "attr": {"T": {"type": "DT_FLOAT"}, "Tshape": {"type": "DT_INT32"}}}, {"name": "model_91/tf.concat_77/concat", "op": "ConcatV2", "input": ["model_91/tf.reshape_59/Reshape", "model_91/tf.reshape_62/Reshape", "model_91/tf.reshape_65/Reshape", "model_91/tf.concat_77/concat/axis"], "attr": {"N": {"i": "3"}, "Tidx": {"type": "DT_INT32"}, "T": {"type": "DT_FLOAT"}}}, {"name": "model_91/tf.strided_slice_72/StridedSlice", "op": "StridedSlice", "input": ["model_91/tf.concat_77/concat", "model_91/tf.strided_slice_72/StridedSlice/begin", "model_91/tf.strided_slice_72/StridedSlice/end", "model_91/tf.strided_slice_72/StridedSlice/strides"], "attr": {"shrink_axis_mask": {"i": "0"}, "new_axis_mask": {"i": "0"}, "Index": {"type": "DT_INT64"}, "begin_mask": {"i": "5"}, "end_mask": {"i": "5"}, "T": {"type": "DT_FLOAT"}, "ellipsis_mask": {"i": "0"}}}, {"name": "model_91/tf.strided_slice_71/StridedSlice", "op": "StridedSlice", "input": ["model_91/tf.concat_77/concat", "model_91/tf.strided_slice_71/StridedSlice/begin", "model_91/tf.strided_slice_71/StridedSlice/end", "model_91/tf.strided_slice_71/StridedSlice/strides"], "attr": {"shrink_axis_mask": {"i": "0"}, "Index": {"type": "DT_INT64"}, "new_axis_mask": {"i": "0"}, "begin_mask": {"i": "7"}, "end_mask": {"i": "5"}, "T": {"type": "DT_FLOAT"}, "ellipsis_mask": {"i": "0"}}}, {"name": "model_91/tf.math.sigmoid_234/Sigmoid", "op": "Sigmoid", "input": ["model_91/tf.strided_slice_72/StridedSlice"], "attr": {"T": {"type": "DT_FLOAT"}}}, {"name": "model_91/tf.reshape_68/Reshape", "op": "Reshape", "input": ["model_91/tf.strided_slice_71/StridedSlice", "model_91/tf.reshape_68/Reshape/shape"], "attr": {"T": {"type": "DT_FLOAT"}, "Tshape": {"type": "DT_INT32"}}}, {"name": "model_91/tf.compat.v1.transpose_411/transpose", "op": "Transpose", "input": ["model_91/tf.reshape_68/Reshape", "model_91/tf.compat.v1.transpose_411/transpose/perm"], "attr": {"Tperm": {"type": "DT_INT32"}, "T": {"type": "DT_FLOAT"}}}, {"name": "model_91/tf.compat.v1.transpose_412/transpose", "op": "Transpose", "input": ["model_91/tf.compat.v1.transpose_411/transpose", "model_91/tf.compat.v1.transpose_412/transpose/perm"], "attr": {"Tperm": {"type": "DT_INT32"}, "T": {"type": "DT_FLOAT"}}}, {"name": "model_91/tf.nn.softmax_8/wa/model.23/dfl/Softmax", "op": "Softmax", "input": ["model_91/tf.compat.v1.transpose_412/transpose"], "attr": {"T": {"type": "DT_FLOAT"}}}, {"name": "model_91/tf.nn.convolution_631/convolution", "op": "Conv2D", "input": ["model_91/tf.nn.softmax_8/wa/model.23/dfl/Softmax", "model_91/tf.nn.convolution_631/convolution/filter"], "device": "/device:CPU:0", "attr": {"padding": {"s": "U0FNRQ=="}, "data_format": {"s": "TkhXQw=="}, "strides": {"list": {"i": ["1", "1", "1", "1"]}}, "use_cudnn_on_gpu": {"b": true}, "T": {"type": "DT_FLOAT"}, "explicit_paddings": {"list": {}}, "dilations": {"list": {"i": ["1", "1", "1", "1"]}}}}, {"name": "model_91/tf.compat.v1.transpose_417/transpose", "op": "Transpose", "input": ["model_91/tf.nn.convolution_631/convolution", "model_91/tf.compat.v1.transpose_417/transpose/perm"], "attr": {"Tperm": {"type": "DT_INT32"}, "T": {"type": "DT_FLOAT"}}}, {"name": "model_91/tf.reshape_71/Reshape", "op": "Reshape", "input": ["model_91/tf.compat.v1.transpose_417/transpose", "model_91/tf.reshape_71/Reshape/shape"], "attr": {"T": {"type": "DT_FLOAT"}, "Tshape": {"type": "DT_INT32"}}}, {"name": "model_91/tf.strided_slice_73/StridedSlice", "op": "StridedSlice", "input": ["model_91/tf.reshape_71/Reshape", "model_91/tf.strided_slice_73/ones_like/tensor", "model_91/tf.strided_slice_73/StridedSlice/end", "model_91/tf.strided_slice_73/ones_like"], "attr": {"shrink_axis_mask": {"i": "0"}, "Index": {"type": "DT_INT64"}, "new_axis_mask": {"i": "0"}, "begin_mask": {"i": "7"}, "T": {"type": "DT_FLOAT"}, "end_mask": {"i": "5"}, "ellipsis_mask": {"i": "0"}}}, {"name": "model_91/tf.strided_slice_74/StridedSlice", "op": "StridedSlice", "input": ["model_91/tf.reshape_71/Reshape", "model_91/tf.strided_slice_74/ones_like/tensor", "model_91/tf.strided_slice_74/StridedSlice/end", "model_91/tf.strided_slice_74/ones_like"], "attr": {"shrink_axis_mask": {"i": "0"}, "new_axis_mask": {"i": "0"}, "Index": {"type": "DT_INT64"}, "begin_mask": {"i": "5"}, "T": {"type": "DT_FLOAT"}, "end_mask": {"i": "5"}, "ellipsis_mask": {"i": "0"}}}, {"name": "model_91/tf.math.subtract_4/Sub", "op": "Sub", "input": ["model_91/151533", "model_91/tf.strided_slice_73/StridedSlice"], "attr": {"T": {"type": "DT_FLOAT"}}}, {"name": "model_91/tf.math.add_356/Add", "op": "AddV2", "input": ["model_91/tf.strided_slice_74/StridedSlice", "model_91/tf.math.add_356/Add/y"], "attr": {"T": {"type": "DT_FLOAT"}}}, {"name": "model_91/tf.math.add_357/Add", "op": "AddV2", "input": ["model_91/tf.math.subtract_4/Sub", "model_91/tf.math.add_356/Add"], "attr": {"T": {"type": "DT_FLOAT"}}}, {"name": "model_91/tf.math.subtract_5/Sub", "op": "Sub", "input": ["model_91/tf.math.add_356/Add", "model_91/tf.math.subtract_4/Sub"], "attr": {"T": {"type": "DT_FLOAT"}}}, {"name": "model_91/tf.math.divide_2/truediv", "op": "Mul", "input": ["model_91/tf.math.add_357/Add", "ConstantFolding/model_91/tf.math.divide_2/truediv_recip"], "attr": {"T": {"type": "DT_FLOAT"}}}, {"name": "model_91/tf.concat_81/concat", "op": "ConcatV2", "input": ["model_91/tf.math.divide_2/truediv", "model_91/tf.math.subtract_5/Sub", "model_91/tf.concat_81/concat/axis"], "attr": {"N": {"i": "2"}, "Tidx": {"type": "DT_INT32"}, "T": {"type": "DT_FLOAT"}}}, {"name": "model_91/tf.math.multiply_1987/Mul", "op": "Mul", "input": ["model_91/tf.concat_81/concat", "model_91/tf.math.multiply_1985/Mul"], "attr": {"T": {"type": "DT_FLOAT"}}}, {"name": "model_91/output0/concat", "op": "ConcatV2", "input": ["model_91/tf.math.multiply_1987/Mul", "model_91/tf.math.sigmoid_234/Sigmoid", "model_91/output0/concat/axis"], "attr": {"N": {"i": "2"}, "Tidx": {"type": "DT_INT32"}, "T": {"type": "DT_FLOAT"}}}, {"name": "Identity", "op": "Identity", "input": ["model_91/output0/concat"], "attr": {"T": {"type": "DT_FLOAT"}}}], "library": {}, "versions": {"producer": 1994}}, "weightsManifest": [{"paths": ["group1-shard1of3.bin", "group1-shard2of3.bin", "group1-shard3of3.bin"], "weights": [{"name": "ConstantFolding/model_91/tf.math.divide_2/truediv_recip", "shape": [], "dtype": "float32"}, {"name": "model_91/tf.strided_slice_74/ones_like/tensor", "shape": [3], "dtype": "int32"}, {"name": "model_91/tf.strided_slice_74/StridedSlice/end", "shape": [3], "dtype": "int32"}, {"name": "model_91/tf.strided_slice_74/ones_like", "shape": [3], "dtype": "int32"}, {"name": "model_91/tf.math.add_356/Add/y", "shape": [1, 2, 2100], "dtype": "float32"}, {"name": "model_91/151533", "shape": [1, 2, 2100], "dtype": "float32"}, {"name": "model_91/tf.strided_slice_71/StridedSlice/begin", "shape": [3], "dtype": "int32"}, {"name": "model_91/tf.strided_slice_71/StridedSlice/end", "shape": [3], "dtype": "int32"}, {"name": "model_91/tf.strided_slice_71/StridedSlice/strides", "shape": [3], "dtype": "int32"}, {"name": "model_91/tf.reshape_68/Reshape/shape", "shape": [4], "dtype": "int32"}, {"name": "model_91/tf.compat.v1.transpose_411/transpose/perm", "shape": [4], "dtype": "int32"}, {"name": "model_91/tf.compat.v1.transpose_412/transpose/perm", "shape": [4], "dtype": "int32"}, {"name": "model_91/tf.nn.convolution_631/convolution/filter", "shape": [1, 1, 16, 1], "dtype": "float32"}, {"name": "model_91/tf.compat.v1.transpose_417/transpose/perm", "shape": [4], "dtype": "int32"}, {"name": "model_91/tf.reshape_71/Reshape/shape", "shape": [3], "dtype": "int32"}, {"name": "model_91/tf.strided_slice_73/ones_like/tensor", "shape": [3], "dtype": "int32"}, {"name": "model_91/tf.strided_slice_73/StridedSlice/end", "shape": [3], "dtype": "int32"}, {"name": "model_91/tf.strided_slice_73/ones_like", "shape": [3], "dtype": "int32"}, {"name": "model_91/tf.concat_81/concat/axis", "shape": [], "dtype": "int32"}, {"name": "model_91/tf.math.multiply_1985/Mul", "shape": [1, 1, 2100], "dtype": "float32"}, {"name": "model_91/tf.nn.convolution_599/convolution/filter", "shape": [3, 3, 64, 64], "dtype": "float32"}, {"name": "model_91/tf.math.add_312/Add/y", "shape": [64], "dtype": "float32"}, {"name": "model_91/tf.nn.convolution_600/convolution/filter", "shape": [3, 3, 64, 64], "dtype": "float32"}, {"name": "model_91/tf.math.add_314/Add/y", "shape": [64], "dtype": "float32"}, {"name": "model_91/tf.nn.convolution_603/convolution/filter", "shape": [1, 1, 64, 64], "dtype": "float32"}, {"name": "model_91/tf.math.add_317/Add/y", "shape": [64], "dtype": "float32"}, {"name": "model_91/tf.compat.v1.nn.depthwise_conv2d_14/depthwise/filter_in", "shape": [3, 3, 64, 1], "dtype": "float32"}, {"name": "model_91/tf.math.add_313/Add/y", "shape": [64], "dtype": "float32"}, {"name": "model_91/tf.nn.convolution_601/convolution/filter", "shape": [1, 1, 64, 64], "dtype": "float32"}, {"name": "model_91/tf.math.add_315/Add/y", "shape": [64], "dtype": "float32"}, {"name": "model_91/tf.compat.v1.nn.depthwise_conv2d_15/depthwise/filter_in", "shape": [3, 3, 64, 1], "dtype": "float32"}, {"name": "model_91/tf.math.add_318/Add/y", "shape": [64], "dtype": "float32"}, {"name": "model_91/tf.nn.convolution_605/convolution/filter", "shape": [1, 1, 64, 64], "dtype": "float32"}, {"name": "model_91/tf.math.add_320/Add/y", "shape": [64], "dtype": "float32"}, {"name": "model_91/tf.nn.convolution_607/convolution/filter", "shape": [1, 1, 64, 8], "dtype": "float32"}, {"name": "model_91/tf.math.add_322/Add/y", "shape": [8], "dtype": "float32"}, {"name": "model_91/tf.concat_70/concat/axis", "shape": [], "dtype": "int32"}, {"name": "model_91/tf.compat.v1.transpose_368/transpose/perm", "shape": [4], "dtype": "int32"}, {"name": "model_91/tf.reshape_59/Reshape/shape", "shape": [3], "dtype": "int32"}, {"name": "model_91/tf.nn.convolution_610/convolution/filter", "shape": [3, 3, 128, 64], "dtype": "float32"}, {"name": "model_91/tf.math.add_327/Add/y", "shape": [64], "dtype": "float32"}, {"name": "model_91/tf.nn.convolution_611/convolution/filter", "shape": [3, 3, 64, 64], "dtype": "float32"}, {"name": "model_91/tf.math.add_329/Add/y", "shape": [64], "dtype": "float32"}, {"name": "model_91/tf.nn.convolution_614/convolution/filter", "shape": [1, 1, 64, 64], "dtype": "float32"}, {"name": "model_91/tf.math.add_332/Add/y", "shape": [64], "dtype": "float32"}, {"name": "model_91/tf.compat.v1.nn.depthwise_conv2d_16/depthwise/filter_in", "shape": [3, 3, 128, 1], "dtype": "float32"}, {"name": "model_91/tf.math.add_328/Add/y", "shape": [128], "dtype": "float32"}, {"name": "model_91/tf.nn.convolution_612/convolution/filter", "shape": [1, 1, 128, 64], "dtype": "float32"}, {"name": "model_91/tf.math.add_330/Add/y", "shape": [64], "dtype": "float32"}, {"name": "model_91/tf.compat.v1.nn.depthwise_conv2d_17/depthwise/filter_in", "shape": [3, 3, 64, 1], "dtype": "float32"}, {"name": "model_91/tf.math.add_333/Add/y", "shape": [64], "dtype": "float32"}, {"name": "model_91/tf.nn.convolution_617/convolution/filter", "shape": [1, 1, 64, 64], "dtype": "float32"}, {"name": "model_91/tf.math.add_336/Add/y", "shape": [64], "dtype": "float32"}, {"name": "model_91/tf.nn.convolution_619/convolution/filter", "shape": [1, 1, 64, 8], "dtype": "float32"}, {"name": "model_91/tf.math.add_338/Add/y", "shape": [8], "dtype": "float32"}, {"name": "model_91/tf.concat_73/concat/axis", "shape": [], "dtype": "int32"}, {"name": "model_91/tf.compat.v1.transpose_386/transpose/perm", "shape": [4], "dtype": "int32"}, {"name": "model_91/tf.reshape_62/Reshape/shape", "shape": [3], "dtype": "int32"}, {"name": "model_91/tf.nn.convolution_625/convolution/filter", "shape": [3, 3, 256, 64], "dtype": "float32"}, {"name": "model_91/tf.math.add_348/Add/y", "shape": [64], "dtype": "float32"}, {"name": "model_91/tf.nn.convolution_626/convolution/filter", "shape": [3, 3, 64, 64], "dtype": "float32"}, {"name": "model_91/tf.math.add_350/Add/y", "shape": [64], "dtype": "float32"}, {"name": "model_91/tf.nn.convolution_628/convolution/filter", "shape": [1, 1, 64, 64], "dtype": "float32"}, {"name": "model_91/tf.math.add_352/Add/y", "shape": [64], "dtype": "float32"}, {"name": "model_91/tf.strided_slice_69/ones_like/tensor", "shape": [4], "dtype": "int32"}, {"name": "model_91/tf.strided_slice_69/StridedSlice/end", "shape": [4], "dtype": "int32"}, {"name": "model_91/tf.strided_slice_69/ones_like", "shape": [4], "dtype": "int32"}, {"name": "model_91/tf.nn.convolution_615/convolution/filter", "shape": [1, 1, 128, 64], "dtype": "float32"}, {"name": "model_91/tf.math.add_334/Add/y", "shape": [64], "dtype": "float32"}, {"name": "model_91/tf.nn.convolution_618/convolution/filter", "shape": [3, 3, 64, 64], "dtype": "float32"}, {"name": "model_91/tf.math.add_337/Add/y", "shape": [64], "dtype": "float32"}, {"name": "model_91/tf.nn.convolution_620/convolution/filter", "shape": [3, 3, 64, 64], "dtype": "float32"}, {"name": "model_91/tf.math.add_339/Add/y", "shape": [64], "dtype": "float32"}, {"name": "model_91/tf.nn.convolution_621/convolution/filter", "shape": [3, 3, 64, 64], "dtype": "float32"}, {"name": "model_91/tf.math.add_342/Add/y", "shape": [64], "dtype": "float32"}, {"name": "model_91/tf.nn.convolution_622/convolution/filter", "shape": [3, 3, 64, 64], "dtype": "float32"}, {"name": "model_91/tf.math.add_343/Add/y", "shape": [64], "dtype": "float32"}, {"name": "model_91/tf.strided_slice_67/ones_like/tensor", "shape": [4], "dtype": "int32"}, {"name": "model_91/tf.strided_slice_67/StridedSlice/end", "shape": [4], "dtype": "int32"}, {"name": "model_91/tf.strided_slice_67/ones_like", "shape": [4], "dtype": "int32"}, {"name": "model_91/tf.strided_slice_65/ones_like/tensor", "shape": [4], "dtype": "int32"}, {"name": "model_91/tf.strided_slice_65/StridedSlice/end", "shape": [4], "dtype": "int32"}, {"name": "model_91/tf.strided_slice_65/ones_like", "shape": [4], "dtype": "int32"}, {"name": "model_91/tf.image.resize_5/resize/size", "shape": [2], "dtype": "int32"}, {"name": "model_91/tf.concat_67/concat/axis", "shape": [], "dtype": "int32"}, {"name": "model_91/tf.nn.convolution_594/convolution/filter", "shape": [1, 1, 256, 64], "dtype": "float32"}, {"name": "model_91/tf.math.add_305/Add/y", "shape": [64], "dtype": "float32"}, {"name": "model_91/tf.strided_slice_66/ones_like/tensor", "shape": [4], "dtype": "int32"}, {"name": "model_91/tf.strided_slice_66/StridedSlice/end", "shape": [4], "dtype": "int32"}, {"name": "model_91/tf.strided_slice_66/ones_like", "shape": [4], "dtype": "int32"}, {"name": "model_91/tf.nn.convolution_595/convolution/filter", "shape": [3, 3, 32, 16], "dtype": "float32"}, {"name": "model_91/tf.math.add_306/Add/y", "shape": [16], "dtype": "float32"}, {"name": "model_91/tf.nn.convolution_596/convolution/filter", "shape": [3, 3, 16, 32], "dtype": "float32"}, {"name": "model_91/tf.math.add_307/Add/y", "shape": [32], "dtype": "float32"}, {"name": "model_91/tf.concat_68/concat/axis", "shape": [], "dtype": "int32"}, {"name": "model_91/tf.nn.convolution_597/convolution/filter", "shape": [1, 1, 96, 64], "dtype": "float32"}, {"name": "model_91/tf.math.add_310/Add/y", "shape": [64], "dtype": "float32"}, {"name": "model_91/tf.compat.v1.pad_20/Pad/paddings", "shape": [4, 2], "dtype": "int32"}, {"name": "model_91/tf.nn.convolution_598/convolution/filter", "shape": [3, 3, 64, 64], "dtype": "float32"}, {"name": "model_91/tf.math.add_311/Add/y", "shape": [64], "dtype": "float32"}, {"name": "model_91/tf.strided_slice_63/ones_like/tensor", "shape": [4], "dtype": "int32"}, {"name": "model_91/tf.strided_slice_63/StridedSlice/end", "shape": [4], "dtype": "int32"}, {"name": "model_91/tf.strided_slice_63/ones_like", "shape": [4], "dtype": "int32"}, {"name": "model_91/tf.image.resize_4/resize/size", "shape": [2], "dtype": "int32"}, {"name": "model_91/tf.concat_65/concat/axis", "shape": [], "dtype": "int32"}, {"name": "model_91/tf.nn.convolution_590/convolution/filter", "shape": [1, 1, 384, 128], "dtype": "float32"}, {"name": "model_91/tf.math.add_299/Add/y", "shape": [128], "dtype": "float32"}, {"name": "model_91/tf.strided_slice_64/ones_like/tensor", "shape": [4], "dtype": "int32"}, {"name": "model_91/tf.strided_slice_64/StridedSlice/end", "shape": [4], "dtype": "int32"}, {"name": "model_91/tf.strided_slice_64/ones_like", "shape": [4], "dtype": "int32"}, {"name": "model_91/tf.nn.convolution_591/convolution/filter", "shape": [3, 3, 64, 32], "dtype": "float32"}, {"name": "model_91/tf.math.add_300/Add/y", "shape": [32], "dtype": "float32"}, {"name": "model_91/tf.nn.convolution_592/convolution/filter", "shape": [3, 3, 32, 64], "dtype": "float32"}, {"name": "model_91/tf.math.add_301/Add/y", "shape": [64], "dtype": "float32"}, {"name": "model_91/tf.concat_66/concat/axis", "shape": [], "dtype": "int32"}, {"name": "model_91/tf.nn.convolution_593/convolution/filter", "shape": [1, 1, 192, 128], "dtype": "float32"}, {"name": "model_91/tf.math.add_304/Add/y", "shape": [128], "dtype": "float32"}, {"name": "model_91/tf.concat_69/concat/axis", "shape": [], "dtype": "int32"}, {"name": "model_91/tf.nn.convolution_602/convolution/filter", "shape": [1, 1, 192, 128], "dtype": "float32"}, {"name": "model_91/tf.math.add_316/Add/y", "shape": [128], "dtype": "float32"}, {"name": "model_91/tf.strided_slice_68/ones_like/tensor", "shape": [4], "dtype": "int32"}, {"name": "model_91/tf.strided_slice_68/StridedSlice/end", "shape": [4], "dtype": "int32"}, {"name": "model_91/tf.strided_slice_68/ones_like", "shape": [4], "dtype": "int32"}, {"name": "model_91/tf.nn.convolution_604/convolution/filter", "shape": [3, 3, 64, 32], "dtype": "float32"}, {"name": "model_91/tf.math.add_319/Add/y", "shape": [32], "dtype": "float32"}, {"name": "model_91/tf.nn.convolution_606/convolution/filter", "shape": [3, 3, 32, 64], "dtype": "float32"}, {"name": "model_91/tf.math.add_321/Add/y", "shape": [64], "dtype": "float32"}, {"name": "model_91/tf.concat_71/concat/axis", "shape": [], "dtype": "int32"}, {"name": "model_91/tf.nn.convolution_608/convolution/filter", "shape": [1, 1, 192, 128], "dtype": "float32"}, {"name": "model_91/tf.math.add_325/Add/y", "shape": [128], "dtype": "float32"}, {"name": "model_91/tf.compat.v1.pad_21/Pad/paddings", "shape": [4, 2], "dtype": "int32"}, {"name": "model_91/tf.nn.convolution_609/convolution/filter", "shape": [3, 3, 128, 128], "dtype": "float32"}, {"name": "model_91/tf.math.add_326/Add/y", "shape": [128], "dtype": "float32"}, {"name": "model_91/tf.strided_slice_58/StridedSlice/begin", "shape": [4], "dtype": "int32"}, {"name": "model_91/tf.strided_slice_58/StridedSlice/end", "shape": [4], "dtype": "int32"}, {"name": "model_91/tf.strided_slice_58/ones_like", "shape": [4], "dtype": "int32"}, {"name": "model_91/tf.math.add_295/Add/y", "shape": [128], "dtype": "float32"}, {"name": "model_91/tf.math.add_288/Add/y", "shape": [128], "dtype": "float32"}, {"name": "model_91/tf.strided_slice_60/StridedSlice/begin", "shape": [4], "dtype": "int32"}, {"name": "model_91/tf.strided_slice_60/StridedSlice/end", "shape": [4], "dtype": "int32"}, {"name": "model_91/tf.strided_slice_60/ones_like", "shape": [4], "dtype": "int32"}, {"name": "model_91/tf.strided_slice_61/StridedSlice/begin", "shape": [4], "dtype": "int32"}, {"name": "model_91/tf.strided_slice_61/StridedSlice/end", "shape": [4], "dtype": "int32"}, {"name": "model_91/tf.strided_slice_61/ones_like", "shape": [4], "dtype": "int32"}, {"name": "model_91/tf.math.multiply_1612/Mul/y", "shape": [], "dtype": "float32"}, {"name": "model_91/tf.reshape_56/Reshape/shape", "shape": [4], "dtype": "int32"}, {"name": "model_91/tf.compat.v1.transpose_340/transpose/perm", "shape": [4], "dtype": "int32"}, {"name": "model_91/tf.nn.convolution_458/convolution/filter", "shape": [3, 3, 1, 1], "dtype": "float32"}, {"name": "model_91/tf.nn.convolution_459/convolution/filter", "shape": [3, 3, 1, 1], "dtype": "float32"}, {"name": "model_91/tf.nn.convolution_460/convolution/filter", "shape": [3, 3, 1, 1], "dtype": "float32"}, {"name": "model_91/tf.nn.convolution_461/convolution/filter", "shape": [3, 3, 1, 1], "dtype": "float32"}, {"name": "model_91/tf.nn.convolution_462/convolution/filter", "shape": [3, 3, 1, 1], "dtype": "float32"}, {"name": "model_91/tf.nn.convolution_463/convolution/filter", "shape": [3, 3, 1, 1], "dtype": "float32"}, {"name": "model_91/tf.nn.convolution_464/convolution/filter", "shape": [3, 3, 1, 1], "dtype": "float32"}, {"name": "model_91/tf.nn.convolution_465/convolution/filter", "shape": [3, 3, 1, 1], "dtype": "float32"}, {"name": "model_91/tf.nn.convolution_466/convolution/filter", "shape": [3, 3, 1, 1], "dtype": "float32"}, {"name": "model_91/tf.nn.convolution_467/convolution/filter", "shape": [3, 3, 1, 1], "dtype": "float32"}, {"name": "model_91/tf.nn.convolution_468/convolution/filter", "shape": [3, 3, 1, 1], "dtype": "float32"}, {"name": "model_91/tf.nn.convolution_469/convolution/filter", "shape": [3, 3, 1, 1], "dtype": "float32"}, {"name": "model_91/tf.nn.convolution_470/convolution/filter", "shape": [3, 3, 1, 1], "dtype": "float32"}, {"name": "model_91/tf.nn.convolution_471/convolution/filter", "shape": [3, 3, 1, 1], "dtype": "float32"}, {"name": "model_91/tf.nn.convolution_472/convolution/filter", "shape": [3, 3, 1, 1], "dtype": "float32"}, {"name": "model_91/tf.nn.convolution_473/convolution/filter", "shape": [3, 3, 1, 1], "dtype": "float32"}, {"name": "model_91/tf.nn.convolution_474/convolution/filter", "shape": [3, 3, 1, 1], "dtype": "float32"}, {"name": "model_91/tf.nn.convolution_475/convolution/filter", "shape": [3, 3, 1, 1], "dtype": "float32"}, {"name": "model_91/tf.nn.convolution_476/convolution/filter", "shape": [3, 3, 1, 1], "dtype": "float32"}, {"name": "model_91/tf.nn.convolution_477/convolution/filter", "shape": [3, 3, 1, 1], "dtype": "float32"}, {"name": "model_91/tf.nn.convolution_478/convolution/filter", "shape": [3, 3, 1, 1], "dtype": "float32"}, {"name": "model_91/tf.nn.convolution_479/convolution/filter", "shape": [3, 3, 1, 1], "dtype": "float32"}, {"name": "model_91/tf.nn.convolution_480/convolution/filter", "shape": [3, 3, 1, 1], "dtype": "float32"}, {"name": "model_91/tf.nn.convolution_481/convolution/filter", "shape": [3, 3, 1, 1], "dtype": "float32"}, {"name": "model_91/tf.nn.convolution_482/convolution/filter", "shape": [3, 3, 1, 1], "dtype": "float32"}, {"name": "model_91/tf.nn.convolution_483/convolution/filter", "shape": [3, 3, 1, 1], "dtype": "float32"}, {"name": "model_91/tf.nn.convolution_484/convolution/filter", "shape": [3, 3, 1, 1], "dtype": "float32"}, {"name": "model_91/tf.nn.convolution_485/convolution/filter", "shape": [3, 3, 1, 1], "dtype": "float32"}, {"name": "model_91/tf.nn.convolution_486/convolution/filter", "shape": [3, 3, 1, 1], "dtype": "float32"}, {"name": "model_91/tf.nn.convolution_487/convolution/filter", "shape": [3, 3, 1, 1], "dtype": "float32"}, {"name": "model_91/tf.nn.convolution_488/convolution/filter", "shape": [3, 3, 1, 1], "dtype": "float32"}, {"name": "model_91/tf.nn.convolution_489/convolution/filter", "shape": [3, 3, 1, 1], "dtype": "float32"}, {"name": "model_91/tf.nn.convolution_490/convolution/filter", "shape": [3, 3, 1, 1], "dtype": "float32"}, {"name": "model_91/tf.nn.convolution_491/convolution/filter", "shape": [3, 3, 1, 1], "dtype": "float32"}, {"name": "model_91/tf.nn.convolution_492/convolution/filter", "shape": [3, 3, 1, 1], "dtype": "float32"}, {"name": "model_91/tf.nn.convolution_493/convolution/filter", "shape": [3, 3, 1, 1], "dtype": "float32"}, {"name": "model_91/tf.nn.convolution_494/convolution/filter", "shape": [3, 3, 1, 1], "dtype": "float32"}, {"name": "model_91/tf.nn.convolution_495/convolution/filter", "shape": [3, 3, 1, 1], "dtype": "float32"}, {"name": "model_91/tf.nn.convolution_496/convolution/filter", "shape": [3, 3, 1, 1], "dtype": "float32"}, {"name": "model_91/tf.nn.convolution_497/convolution/filter", "shape": [3, 3, 1, 1], "dtype": "float32"}, {"name": "model_91/tf.nn.convolution_498/convolution/filter", "shape": [3, 3, 1, 1], "dtype": "float32"}, {"name": "model_91/tf.nn.convolution_499/convolution/filter", "shape": [3, 3, 1, 1], "dtype": "float32"}, {"name": "model_91/tf.nn.convolution_500/convolution/filter", "shape": [3, 3, 1, 1], "dtype": "float32"}, {"name": "model_91/tf.nn.convolution_501/convolution/filter", "shape": [3, 3, 1, 1], "dtype": "float32"}, {"name": "model_91/tf.nn.convolution_502/convolution/filter", "shape": [3, 3, 1, 1], "dtype": "float32"}, {"name": "model_91/tf.nn.convolution_503/convolution/filter", "shape": [3, 3, 1, 1], "dtype": "float32"}, {"name": "model_91/tf.nn.convolution_504/convolution/filter", "shape": [3, 3, 1, 1], "dtype": "float32"}, {"name": "model_91/tf.nn.convolution_505/convolution/filter", "shape": [3, 3, 1, 1], "dtype": "float32"}, {"name": "model_91/tf.nn.convolution_506/convolution/filter", "shape": [3, 3, 1, 1], "dtype": "float32"}, {"name": "model_91/tf.nn.convolution_507/convolution/filter", "shape": [3, 3, 1, 1], "dtype": "float32"}, {"name": "model_91/tf.nn.convolution_508/convolution/filter", "shape": [3, 3, 1, 1], "dtype": "float32"}, {"name": "model_91/tf.nn.convolution_509/convolution/filter", "shape": [3, 3, 1, 1], "dtype": "float32"}, {"name": "model_91/tf.nn.convolution_510/convolution/filter", "shape": [3, 3, 1, 1], "dtype": "float32"}, {"name": "model_91/tf.nn.convolution_511/convolution/filter", "shape": [3, 3, 1, 1], "dtype": "float32"}, {"name": "model_91/tf.nn.convolution_512/convolution/filter", "shape": [3, 3, 1, 1], "dtype": "float32"}, {"name": "model_91/tf.nn.convolution_513/convolution/filter", "shape": [3, 3, 1, 1], "dtype": "float32"}, {"name": "model_91/tf.nn.convolution_514/convolution/filter", "shape": [3, 3, 1, 1], "dtype": "float32"}, {"name": "model_91/tf.nn.convolution_515/convolution/filter", "shape": [3, 3, 1, 1], "dtype": "float32"}, {"name": "model_91/tf.nn.convolution_516/convolution/filter", "shape": [3, 3, 1, 1], "dtype": "float32"}, {"name": "model_91/tf.nn.convolution_517/convolution/filter", "shape": [3, 3, 1, 1], "dtype": "float32"}, {"name": "model_91/tf.nn.convolution_518/convolution/filter", "shape": [3, 3, 1, 1], "dtype": "float32"}, {"name": "model_91/tf.nn.convolution_519/convolution/filter", "shape": [3, 3, 1, 1], "dtype": "float32"}, {"name": "model_91/tf.nn.convolution_520/convolution/filter", "shape": [3, 3, 1, 1], "dtype": "float32"}, {"name": "model_91/tf.nn.convolution_521/convolution/filter", "shape": [3, 3, 1, 1], "dtype": "float32"}, {"name": "model_91/tf.nn.convolution_522/convolution/filter", "shape": [3, 3, 1, 1], "dtype": "float32"}, {"name": "model_91/tf.nn.convolution_523/convolution/filter", "shape": [3, 3, 1, 1], "dtype": "float32"}, {"name": "model_91/tf.nn.convolution_524/convolution/filter", "shape": [3, 3, 1, 1], "dtype": "float32"}, {"name": "model_91/tf.nn.convolution_525/convolution/filter", "shape": [3, 3, 1, 1], "dtype": "float32"}, {"name": "model_91/tf.nn.convolution_526/convolution/filter", "shape": [3, 3, 1, 1], "dtype": "float32"}, {"name": "model_91/tf.nn.convolution_527/convolution/filter", "shape": [3, 3, 1, 1], "dtype": "float32"}, {"name": "model_91/tf.nn.convolution_528/convolution/filter", "shape": [3, 3, 1, 1], "dtype": "float32"}, {"name": "model_91/tf.nn.convolution_529/convolution/filter", "shape": [3, 3, 1, 1], "dtype": "float32"}, {"name": "model_91/tf.nn.convolution_530/convolution/filter", "shape": [3, 3, 1, 1], "dtype": "float32"}, {"name": "model_91/tf.nn.convolution_531/convolution/filter", "shape": [3, 3, 1, 1], "dtype": "float32"}, {"name": "model_91/tf.nn.convolution_532/convolution/filter", "shape": [3, 3, 1, 1], "dtype": "float32"}, {"name": "model_91/tf.nn.convolution_533/convolution/filter", "shape": [3, 3, 1, 1], "dtype": "float32"}, {"name": "model_91/tf.nn.convolution_534/convolution/filter", "shape": [3, 3, 1, 1], "dtype": "float32"}, {"name": "model_91/tf.nn.convolution_535/convolution/filter", "shape": [3, 3, 1, 1], "dtype": "float32"}, {"name": "model_91/tf.nn.convolution_536/convolution/filter", "shape": [3, 3, 1, 1], "dtype": "float32"}, {"name": "model_91/tf.nn.convolution_537/convolution/filter", "shape": [3, 3, 1, 1], "dtype": "float32"}, {"name": "model_91/tf.nn.convolution_538/convolution/filter", "shape": [3, 3, 1, 1], "dtype": "float32"}, {"name": "model_91/tf.nn.convolution_539/convolution/filter", "shape": [3, 3, 1, 1], "dtype": "float32"}, {"name": "model_91/tf.nn.convolution_540/convolution/filter", "shape": [3, 3, 1, 1], "dtype": "float32"}, {"name": "model_91/tf.nn.convolution_541/convolution/filter", "shape": [3, 3, 1, 1], "dtype": "float32"}, {"name": "model_91/tf.nn.convolution_542/convolution/filter", "shape": [3, 3, 1, 1], "dtype": "float32"}, {"name": "model_91/tf.nn.convolution_543/convolution/filter", "shape": [3, 3, 1, 1], "dtype": "float32"}, {"name": "model_91/tf.nn.convolution_544/convolution/filter", "shape": [3, 3, 1, 1], "dtype": "float32"}, {"name": "model_91/tf.nn.convolution_545/convolution/filter", "shape": [3, 3, 1, 1], "dtype": "float32"}, {"name": "model_91/tf.nn.convolution_546/convolution/filter", "shape": [3, 3, 1, 1], "dtype": "float32"}, {"name": "model_91/tf.nn.convolution_547/convolution/filter", "shape": [3, 3, 1, 1], "dtype": "float32"}, {"name": "model_91/tf.nn.convolution_548/convolution/filter", "shape": [3, 3, 1, 1], "dtype": "float32"}, {"name": "model_91/tf.nn.convolution_549/convolution/filter", "shape": [3, 3, 1, 1], "dtype": "float32"}, {"name": "model_91/tf.nn.convolution_550/convolution/filter", "shape": [3, 3, 1, 1], "dtype": "float32"}, {"name": "model_91/tf.nn.convolution_551/convolution/filter", "shape": [3, 3, 1, 1], "dtype": "float32"}, {"name": "model_91/tf.nn.convolution_552/convolution/filter", "shape": [3, 3, 1, 1], "dtype": "float32"}, {"name": "model_91/tf.nn.convolution_553/convolution/filter", "shape": [3, 3, 1, 1], "dtype": "float32"}, {"name": "model_91/tf.nn.convolution_554/convolution/filter", "shape": [3, 3, 1, 1], "dtype": "float32"}, {"name": "model_91/tf.nn.convolution_555/convolution/filter", "shape": [3, 3, 1, 1], "dtype": "float32"}, {"name": "model_91/tf.nn.convolution_556/convolution/filter", "shape": [3, 3, 1, 1], "dtype": "float32"}, {"name": "model_91/tf.nn.convolution_557/convolution/filter", "shape": [3, 3, 1, 1], "dtype": "float32"}, {"name": "model_91/tf.nn.convolution_558/convolution/filter", "shape": [3, 3, 1, 1], "dtype": "float32"}, {"name": "model_91/tf.nn.convolution_559/convolution/filter", "shape": [3, 3, 1, 1], "dtype": "float32"}, {"name": "model_91/tf.nn.convolution_560/convolution/filter", "shape": [3, 3, 1, 1], "dtype": "float32"}, {"name": "model_91/tf.nn.convolution_561/convolution/filter", "shape": [3, 3, 1, 1], "dtype": "float32"}, {"name": "model_91/tf.nn.convolution_562/convolution/filter", "shape": [3, 3, 1, 1], "dtype": "float32"}, {"name": "model_91/tf.nn.convolution_563/convolution/filter", "shape": [3, 3, 1, 1], "dtype": "float32"}, {"name": "model_91/tf.nn.convolution_564/convolution/filter", "shape": [3, 3, 1, 1], "dtype": "float32"}, {"name": "model_91/tf.nn.convolution_565/convolution/filter", "shape": [3, 3, 1, 1], "dtype": "float32"}, {"name": "model_91/tf.nn.convolution_566/convolution/filter", "shape": [3, 3, 1, 1], "dtype": "float32"}, {"name": "model_91/tf.nn.convolution_567/convolution/filter", "shape": [3, 3, 1, 1], "dtype": "float32"}, {"name": "model_91/tf.nn.convolution_568/convolution/filter", "shape": [3, 3, 1, 1], "dtype": "float32"}, {"name": "model_91/tf.nn.convolution_569/convolution/filter", "shape": [3, 3, 1, 1], "dtype": "float32"}, {"name": "model_91/tf.nn.convolution_570/convolution/filter", "shape": [3, 3, 1, 1], "dtype": "float32"}, {"name": "model_91/tf.nn.convolution_571/convolution/filter", "shape": [3, 3, 1, 1], "dtype": "float32"}, {"name": "model_91/tf.nn.convolution_572/convolution/filter", "shape": [3, 3, 1, 1], "dtype": "float32"}, {"name": "model_91/tf.nn.convolution_573/convolution/filter", "shape": [3, 3, 1, 1], "dtype": "float32"}, {"name": "model_91/tf.nn.convolution_574/convolution/filter", "shape": [3, 3, 1, 1], "dtype": "float32"}, {"name": "model_91/tf.nn.convolution_575/convolution/filter", "shape": [3, 3, 1, 1], "dtype": "float32"}, {"name": "model_91/tf.nn.convolution_576/convolution/filter", "shape": [3, 3, 1, 1], "dtype": "float32"}, {"name": "model_91/tf.nn.convolution_577/convolution/filter", "shape": [3, 3, 1, 1], "dtype": "float32"}, {"name": "model_91/tf.nn.convolution_578/convolution/filter", "shape": [3, 3, 1, 1], "dtype": "float32"}, {"name": "model_91/tf.nn.convolution_579/convolution/filter", "shape": [3, 3, 1, 1], "dtype": "float32"}, {"name": "model_91/tf.nn.convolution_580/convolution/filter", "shape": [3, 3, 1, 1], "dtype": "float32"}, {"name": "model_91/tf.nn.convolution_581/convolution/filter", "shape": [3, 3, 1, 1], "dtype": "float32"}, {"name": "model_91/tf.nn.convolution_582/convolution/filter", "shape": [3, 3, 1, 1], "dtype": "float32"}, {"name": "model_91/tf.nn.convolution_583/convolution/filter", "shape": [3, 3, 1, 1], "dtype": "float32"}, {"name": "model_91/tf.nn.convolution_584/convolution/filter", "shape": [3, 3, 1, 1], "dtype": "float32"}, {"name": "model_91/tf.split_2/split/split_dim", "shape": [], "dtype": "int32"}, {"name": "model_91/tf.strided_slice_56/ones_like/tensor", "shape": [4], "dtype": "int32"}, {"name": "model_91/tf.strided_slice_56/StridedSlice/end", "shape": [4], "dtype": "int32"}, {"name": "model_91/tf.strided_slice_56/ones_like", "shape": [4], "dtype": "int32"}, {"name": "model_91/tf.nn.convolution_446/convolution/filter", "shape": [1, 1, 128, 64], "dtype": "float32"}, {"name": "model_91/tf.math.add_272/Add/y", "shape": [64], "dtype": "float32"}, {"name": "model_91/tf.nn.convolution_448/convolution/filter", "shape": [3, 3, 64, 64], "dtype": "float32"}, {"name": "model_91/tf.math.add_274/Add/y", "shape": [64], "dtype": "float32"}, {"name": "model_91/tf.nn.convolution_449/convolution/filter", "shape": [3, 3, 64, 64], "dtype": "float32"}, {"name": "model_91/tf.math.add_275/Add/y", "shape": [64], "dtype": "float32"}, {"name": "model_91/tf.nn.convolution_450/convolution/filter", "shape": [3, 3, 64, 64], "dtype": "float32"}, {"name": "model_91/tf.math.add_278/Add/y", "shape": [64], "dtype": "float32"}, {"name": "model_91/tf.nn.convolution_451/convolution/filter", "shape": [3, 3, 64, 64], "dtype": "float32"}, {"name": "model_91/tf.math.add_279/Add/y", "shape": [64], "dtype": "float32"}, {"name": "model_91/tf.strided_slice_54/ones_like/tensor", "shape": [4], "dtype": "int32"}, {"name": "model_91/tf.strided_slice_54/StridedSlice/end", "shape": [4], "dtype": "int32"}, {"name": "model_91/tf.strided_slice_54/ones_like", "shape": [4], "dtype": "int32"}, {"name": "model_91/tf.nn.convolution_436/convolution/filter", "shape": [1, 1, 64, 32], "dtype": "float32"}, {"name": "model_91/tf.math.add_258/Add/y", "shape": [32], "dtype": "float32"}, {"name": "model_91/tf.nn.convolution_438/convolution/filter", "shape": [3, 3, 32, 32], "dtype": "float32"}, {"name": "model_91/tf.math.add_260/Add/y", "shape": [32], "dtype": "float32"}, {"name": "model_91/tf.nn.convolution_439/convolution/filter", "shape": [3, 3, 32, 32], "dtype": "float32"}, {"name": "model_91/tf.math.add_261/Add/y", "shape": [32], "dtype": "float32"}, {"name": "model_91/tf.nn.convolution_440/convolution/filter", "shape": [3, 3, 32, 32], "dtype": "float32"}, {"name": "model_91/tf.math.add_264/Add/y", "shape": [32], "dtype": "float32"}, {"name": "model_91/tf.nn.convolution_441/convolution/filter", "shape": [3, 3, 32, 32], "dtype": "float32"}, {"name": "model_91/tf.math.add_265/Add/y", "shape": [32], "dtype": "float32"}, {"name": "model_91/tf.strided_slice_52/ones_like/tensor", "shape": [4], "dtype": "int32"}, {"name": "model_91/tf.strided_slice_52/StridedSlice/end", "shape": [4], "dtype": "int32"}, {"name": "model_91/tf.strided_slice_52/ones_like", "shape": [4], "dtype": "int32"}, {"name": "model_91/tf.strided_slice_50/ones_like/tensor", "shape": [4], "dtype": "int32"}, {"name": "model_91/tf.strided_slice_50/StridedSlice/end", "shape": [4], "dtype": "int32"}, {"name": "model_91/tf.strided_slice_50/ones_like", "shape": [4], "dtype": "int32"}, {"name": "model_91/tf.compat.v1.pad_15/Pad/paddings", "shape": [4, 2], "dtype": "int32"}, {"name": "model_91/tf.nn.convolution_423/convolution/filter", "shape": [3, 3, 3, 16], "dtype": "float32"}, {"name": "model_91/tf.math.add_241/Add/y", "shape": [16], "dtype": "float32"}, {"name": "model_91/tf.compat.v1.pad_16/Pad/paddings", "shape": [4, 2], "dtype": "int32"}, {"name": "model_91/tf.nn.convolution_424/convolution/filter", "shape": [3, 3, 16, 32], "dtype": "float32"}, {"name": "model_91/tf.math.add_242/Add/y", "shape": [32], "dtype": "float32"}, {"name": "model_91/tf.nn.convolution_425/convolution/filter", "shape": [1, 1, 32, 32], "dtype": "float32"}, {"name": "model_91/tf.math.add_243/Add/y", "shape": [32], "dtype": "float32"}, {"name": "model_91/tf.strided_slice_51/ones_like/tensor", "shape": [4], "dtype": "int32"}, {"name": "model_91/tf.strided_slice_51/StridedSlice/end", "shape": [4], "dtype": "int32"}, {"name": "model_91/tf.strided_slice_51/ones_like", "shape": [4], "dtype": "int32"}, {"name": "model_91/tf.nn.convolution_426/convolution/filter", "shape": [3, 3, 16, 8], "dtype": "float32"}, {"name": "model_91/tf.math.add_244/Add/y", "shape": [8], "dtype": "float32"}, {"name": "model_91/tf.nn.convolution_427/convolution/filter", "shape": [3, 3, 8, 16], "dtype": "float32"}, {"name": "model_91/tf.math.add_245/Add/y", "shape": [16], "dtype": "float32"}, {"name": "model_91/tf.concat_56/concat/axis", "shape": [], "dtype": "int32"}, {"name": "model_91/tf.nn.convolution_428/convolution/filter", "shape": [1, 1, 48, 64], "dtype": "float32"}, {"name": "model_91/tf.math.add_248/Add/y", "shape": [64], "dtype": "float32"}, {"name": "model_91/tf.compat.v1.pad_17/Pad/paddings", "shape": [4, 2], "dtype": "int32"}, {"name": "model_91/tf.nn.convolution_429/convolution/filter", "shape": [3, 3, 64, 64], "dtype": "float32"}, {"name": "model_91/tf.math.add_249/Add/y", "shape": [64], "dtype": "float32"}, {"name": "model_91/tf.nn.convolution_430/convolution/filter", "shape": [1, 1, 64, 64], "dtype": "float32"}, {"name": "model_91/tf.math.add_250/Add/y", "shape": [64], "dtype": "float32"}, {"name": "model_91/tf.strided_slice_53/ones_like/tensor", "shape": [4], "dtype": "int32"}, {"name": "model_91/tf.strided_slice_53/StridedSlice/end", "shape": [4], "dtype": "int32"}, {"name": "model_91/tf.strided_slice_53/ones_like", "shape": [4], "dtype": "int32"}, {"name": "model_91/tf.nn.convolution_431/convolution/filter", "shape": [3, 3, 32, 16], "dtype": "float32"}, {"name": "model_91/tf.math.add_251/Add/y", "shape": [16], "dtype": "float32"}, {"name": "model_91/tf.nn.convolution_432/convolution/filter", "shape": [3, 3, 16, 32], "dtype": "float32"}, {"name": "model_91/tf.math.add_252/Add/y", "shape": [32], "dtype": "float32"}, {"name": "model_91/tf.concat_57/concat/axis", "shape": [], "dtype": "int32"}, {"name": "model_91/tf.nn.convolution_433/convolution/filter", "shape": [1, 1, 96, 128], "dtype": "float32"}, {"name": "model_91/tf.math.add_255/Add/y", "shape": [128], "dtype": "float32"}, {"name": "model_91/tf.compat.v1.pad_18/Pad/paddings", "shape": [4, 2], "dtype": "int32"}, {"name": "model_91/tf.nn.convolution_434/convolution/filter", "shape": [3, 3, 128, 128], "dtype": "float32"}, {"name": "model_91/tf.math.add_256/Add/y", "shape": [128], "dtype": "float32"}, {"name": "model_91/tf.nn.convolution_435/convolution/filter", "shape": [1, 1, 128, 128], "dtype": "float32"}, {"name": "model_91/tf.math.add_257/Add/y", "shape": [128], "dtype": "float32"}, {"name": "model_91/tf.strided_slice_55/ones_like/tensor", "shape": [4], "dtype": "int32"}, {"name": "model_91/tf.strided_slice_55/StridedSlice/end", "shape": [4], "dtype": "int32"}, {"name": "model_91/tf.strided_slice_55/ones_like", "shape": [4], "dtype": "int32"}, {"name": "model_91/tf.nn.convolution_437/convolution/filter", "shape": [1, 1, 64, 32], "dtype": "float32"}, {"name": "model_91/tf.math.add_259/Add/y", "shape": [32], "dtype": "float32"}, {"name": "model_91/tf.concat_58/concat/axis", "shape": [], "dtype": "int32"}, {"name": "model_91/tf.nn.convolution_442/convolution/filter", "shape": [1, 1, 64, 64], "dtype": "float32"}, {"name": "model_91/tf.math.add_268/Add/y", "shape": [64], "dtype": "float32"}, {"name": "model_91/tf.concat_59/concat/axis", "shape": [], "dtype": "int32"}, {"name": "model_91/tf.nn.convolution_443/convolution/filter", "shape": [1, 1, 192, 128], "dtype": "float32"}, {"name": "model_91/tf.math.add_269/Add/y", "shape": [128], "dtype": "float32"}, {"name": "model_91/tf.compat.v1.pad_19/Pad/paddings", "shape": [4, 2], "dtype": "int32"}, {"name": "model_91/tf.nn.convolution_444/convolution/filter", "shape": [3, 3, 128, 256], "dtype": "float32"}, {"name": "model_91/tf.math.add_270/Add/y", "shape": [256], "dtype": "float32"}, {"name": "model_91/tf.nn.convolution_445/convolution/filter", "shape": [1, 1, 256, 256], "dtype": "float32"}, {"name": "model_91/tf.math.add_271/Add/y", "shape": [256], "dtype": "float32"}, {"name": "model_91/tf.strided_slice_57/ones_like/tensor", "shape": [4], "dtype": "int32"}, {"name": "model_91/tf.strided_slice_57/StridedSlice/end", "shape": [4], "dtype": "int32"}, {"name": "model_91/tf.strided_slice_57/ones_like", "shape": [4], "dtype": "int32"}, {"name": "model_91/tf.nn.convolution_447/convolution/filter", "shape": [1, 1, 128, 64], "dtype": "float32"}, {"name": "model_91/tf.math.add_273/Add/y", "shape": [64], "dtype": "float32"}, {"name": "model_91/tf.concat_60/concat/axis", "shape": [], "dtype": "int32"}, {"name": "model_91/tf.nn.convolution_452/convolution/filter", "shape": [1, 1, 128, 128], "dtype": "float32"}, {"name": "model_91/tf.math.add_282/Add/y", "shape": [128], "dtype": "float32"}, {"name": "model_91/tf.concat_61/concat/axis", "shape": [], "dtype": "int32"}, {"name": "model_91/tf.nn.convolution_453/convolution/filter", "shape": [1, 1, 384, 256], "dtype": "float32"}, {"name": "model_91/tf.math.add_283/Add/y", "shape": [256], "dtype": "float32"}, {"name": "model_91/tf.nn.convolution_454/convolution/filter", "shape": [1, 1, 256, 128], "dtype": "float32"}, {"name": "model_91/tf.math.add_284/Add/y", "shape": [128], "dtype": "float32"}, {"name": "model_91/tf.concat_62/concat/axis", "shape": [], "dtype": "int32"}, {"name": "model_91/tf.nn.convolution_455/convolution/filter", "shape": [1, 1, 512, 256], "dtype": "float32"}, {"name": "model_91/tf.math.add_285/Add/y", "shape": [256], "dtype": "float32"}, {"name": "model_91/tf.nn.convolution_456/convolution/filter", "shape": [1, 1, 256, 256], "dtype": "float32"}, {"name": "model_91/tf.math.add_286/Add/y", "shape": [256], "dtype": "float32"}, {"name": "model_91/tf.strided_slice_59/StridedSlice/begin", "shape": [4], "dtype": "int32"}, {"name": "model_91/tf.strided_slice_59/StridedSlice/end", "shape": [4], "dtype": "int32"}, {"name": "model_91/tf.strided_slice_59/ones_like", "shape": [4], "dtype": "int32"}, {"name": "model_91/tf.nn.convolution_457/convolution/filter", "shape": [1, 1, 128, 256], "dtype": "float32"}, {"name": "model_91/tf.math.add_287/Add/y", "shape": [256], "dtype": "float32"}, {"name": "model_91/tf.compat.v1.transpose_325/transpose/perm", "shape": [4], "dtype": "int32"}, {"name": "model_91/tf.reshape_50/Reshape/shape", "shape": [4], "dtype": "int32"}, {"name": "model_91/tf.strided_slice_62/StridedSlice/begin", "shape": [4], "dtype": "int32"}, {"name": "model_91/tf.strided_slice_62/StridedSlice/end", "shape": [4], "dtype": "int32"}, {"name": "model_91/tf.strided_slice_62/ones_like", "shape": [4], "dtype": "int32"}, {"name": "model_91/tf.reshape_53/Reshape/shape", "shape": [4], "dtype": "int32"}, {"name": "model_91/tf.compat.v1.transpose_333/transpose/perm", "shape": [4], "dtype": "int32"}, {"name": "model_91/tf.nn.convolution_585/convolution/filter", "shape": [3, 3, 1, 1], "dtype": "float32"}, {"name": "model_91/tf.concat_63/concat/axis", "shape": [], "dtype": "int32"}, {"name": "model_91/tf.nn.convolution_586/convolution/filter", "shape": [1, 1, 128, 128], "dtype": "float32"}, {"name": "model_91/tf.math.add_291/Add/y", "shape": [128], "dtype": "float32"}, {"name": "model_91/tf.nn.convolution_587/convolution/filter", "shape": [1, 1, 128, 256], "dtype": "float32"}, {"name": "model_91/tf.math.add_294/Add/y", "shape": [256], "dtype": "float32"}, {"name": "model_91/tf.nn.convolution_588/convolution/filter", "shape": [1, 1, 256, 128], "dtype": "float32"}, {"name": "model_91/tf.concat_64/concat/axis", "shape": [], "dtype": "int32"}, {"name": "model_91/tf.nn.convolution_589/convolution/filter", "shape": [1, 1, 256, 256], "dtype": "float32"}, {"name": "model_91/tf.math.add_298/Add/y", "shape": [256], "dtype": "float32"}, {"name": "model_91/tf.concat_72/concat/axis", "shape": [], "dtype": "int32"}, {"name": "model_91/tf.nn.convolution_613/convolution/filter", "shape": [1, 1, 384, 256], "dtype": "float32"}, {"name": "model_91/tf.math.add_331/Add/y", "shape": [256], "dtype": "float32"}, {"name": "model_91/tf.strided_slice_70/ones_like/tensor", "shape": [4], "dtype": "int32"}, {"name": "model_91/tf.strided_slice_70/StridedSlice/end", "shape": [4], "dtype": "int32"}, {"name": "model_91/tf.strided_slice_70/ones_like", "shape": [4], "dtype": "int32"}, {"name": "model_91/tf.nn.convolution_616/convolution/filter", "shape": [1, 1, 128, 64], "dtype": "float32"}, {"name": "model_91/tf.math.add_335/Add/y", "shape": [64], "dtype": "float32"}, {"name": "model_91/tf.concat_74/concat/axis", "shape": [], "dtype": "int32"}, {"name": "model_91/tf.nn.convolution_623/convolution/filter", "shape": [1, 1, 128, 128], "dtype": "float32"}, {"name": "model_91/tf.math.add_346/Add/y", "shape": [128], "dtype": "float32"}, {"name": "model_91/tf.concat_75/concat/axis", "shape": [], "dtype": "int32"}, {"name": "model_91/tf.nn.convolution_624/convolution/filter", "shape": [1, 1, 384, 256], "dtype": "float32"}, {"name": "model_91/tf.math.add_347/Add/y", "shape": [256], "dtype": "float32"}, {"name": "model_91/tf.compat.v1.nn.depthwise_conv2d_18/depthwise/filter_in", "shape": [3, 3, 256, 1], "dtype": "float32"}, {"name": "model_91/tf.math.add_349/Add/y", "shape": [256], "dtype": "float32"}, {"name": "model_91/tf.nn.convolution_627/convolution/filter", "shape": [1, 1, 256, 64], "dtype": "float32"}, {"name": "model_91/tf.math.add_351/Add/y", "shape": [64], "dtype": "float32"}, {"name": "model_91/tf.compat.v1.nn.depthwise_conv2d_19/depthwise/filter_in", "shape": [3, 3, 64, 1], "dtype": "float32"}, {"name": "model_91/tf.math.add_353/Add/y", "shape": [64], "dtype": "float32"}, {"name": "model_91/tf.nn.convolution_629/convolution/filter", "shape": [1, 1, 64, 64], "dtype": "float32"}, {"name": "model_91/tf.math.add_354/Add/y", "shape": [64], "dtype": "float32"}, {"name": "model_91/tf.nn.convolution_630/convolution/filter", "shape": [1, 1, 64, 8], "dtype": "float32"}, {"name": "model_91/tf.math.add_355/Add/y", "shape": [8], "dtype": "float32"}, {"name": "model_91/tf.concat_76/concat/axis", "shape": [], "dtype": "int32"}, {"name": "model_91/tf.compat.v1.transpose_404/transpose/perm", "shape": [4], "dtype": "int32"}, {"name": "model_91/tf.reshape_65/Reshape/shape", "shape": [3], "dtype": "int32"}, {"name": "model_91/tf.concat_77/concat/axis", "shape": [], "dtype": "int32"}, {"name": "model_91/tf.strided_slice_72/StridedSlice/begin", "shape": [3], "dtype": "int32"}, {"name": "model_91/tf.strided_slice_72/StridedSlice/end", "shape": [3], "dtype": "int32"}, {"name": "model_91/tf.strided_slice_72/StridedSlice/strides", "shape": [3], "dtype": "int32"}, {"name": "model_91/output0/concat/axis", "shape": [], "dtype": "int32"}]}]}